model_checkpoint_20250416_143900.pth (torch, 869398 bytes, 10 tensors)

lstm.weight_ih_l0 f4 [512, 34]
000000 90 dc 3b 3c ec a1 29 bc fa 78 b6 bb bf a4 21 bd
       0.01146616 -0.010353547 -0.0055686207 -0.039463755
000010 87 f7 dd bc f8 4a eb 3c 12 de 89 bc ac 45 66 3d
       -0.02709557 0.028722271 -0.016829524 0.056218788
000020 46 a8 58 bd 2e d2 24 bc 8d 7e 4b bd e2 c9 7c 3d
       -0.052894853 -0.010059876 -0.049681235 0.061715968
000030 26 61 b2 bd a3 a0 c1 3d 24 37 8b bc 3e da af 3d
       -0.08709936 0.09454467 -0.016994067 0.08586548
000040 74 53 22 3d 63 d4 a6 3d 87 9b 20 bd c5 26 59 3b
       0.03963037 0.08145978 -0.039210822 0.003313468
000050 33 f8 55 3d e2 d8 a5 3d 67 2c ac bd ab ea 4a 3c
       0.052238654 0.08098008 -0.084069066 0.012385051
000060 47 f6 5b bd 23 a2 45 bc f0 a9 ac 3d 75 89 fe bc
       -0.053701665 -0.012062582 0.084308505 -0.031071404
000070 26 74 d3 3c 77 63 d6 3c c6 bc 29 bd 0b 04 08 bd
       0.02581222 0.026170475 -0.041439794 -0.03320698
000080 44 00 a6 3c 79 bc be 3b aa ff 11 3d 5b d1 83 3d
       0.020263799 0.0058208075 0.03564421 0.06436416
000090 84 f5 b2 3c e5 da 62 bd 66 8e 2d bb ce 2f 7b bc
       0.021845587 -0.055384535 -0.002648258 -0.015331222
0000a0 1c 81 96 bd 12 d8 0a 3d 82 c6 4a 3d ac 4c 65 3d
       -0.073488444 0.033897467 0.049505718 0.055981323
0000b0 cc 05 10 3d 36 e5 3d 3b 6d bc 68 3d 0d 05 cb 3b
       0.03516178 0.0028975732 0.05682032 0.0061956705
0000c0 0f 5d 87 3d ec 6f 8d b9 98 b2 cf 3d 08 a8 fd 3c
       0.066095464 -0.00026977004 0.10141486 0.030963913
0000d0 16 ab 1f bc 17 38 3f bd e2 6e 83 bd 87 35 68 3d
       -0.00974538 -0.04668435 -0.064176336 0.056691673
0000e0 05 35 bf bb 67 c8 3c 3d 04 94 08 3d eb 0e c5 3d
       -0.005835178 0.046089556 0.033344284 0.09621986
0000f0 2a 56 8a bd e9 b9 b1 3b 27 d4 c3 3d e0 e9 96 bd
       -0.06754716 0.0054237735 0.09561949 -0.07368827
000100 3c 56 8e 3d e9 2a 97 3d ce 61 2e bd 1f a3 ae 3d
       0.06950042 0.07381231 -0.042573743 0.08527207
000110 90 98 d2 bc fa db 83 bd c7 17 57 bd fa 2a e7 3c
       -0.025707513 -0.064384416 -0.05251291 0.028218735
000120 3d 75 63 3b 5a 8c 0c bb 02 70 fc 3c 7e b3 88 bc
       0.003470733 -0.002144596 0.030815128 -0.016687151
000130 07 10 3e 3c ce 39 be bd b4 05 9c 3c 8c 54 19 3d
       0.011600501 -0.09288369 0.019045688 0.037434146
000140 51 38 ce bc cc ee f0 bd 18 aa 50 3d 8d f8 14 3c
       -0.025173338 -0.11764297 0.050943464 0.009092462
000150 4d 2b 19 bd 14 ee 9b bd 47 12 74 3d ce 07 ad bd
       -0.03739481 -0.07613769 0.059587743 -0.08448754
000160 cd 20 35 bd ab a2 cd bd 1f 20 ca bc b5 66 3b 3c
       -0.044220734 -0.10040792 -0.02467352 0.0114380615
000170 6a b2 84 bd c4 e4 ce bc 61 0c 82 bd b2 37 b1 3d
       -0.06479342 -0.025255568 -0.06350017 0.08653201
000180 b4 dd 46 3d 26 44 cc 3d 26 56 7e bd 3f 0a cf 3d
       0.048551276 0.09973936 -0.062093876 0.10109376
000190 e6 46 76 3c c3 41 61 3c 6b c2 ce bc 15 11 66 3d
       0.015031552 0.013748589 -0.02523919 0.056168634
0001a0 e3 94 6f bd 47 be bd bb dd bf 72 3d 25 07 5a 3d
       -0.0584916 -0.005790505 0.059265006 0.05322947
0001b0 ab 0b dc 3c f5 12 45 3d 43 2b 4b 3d 3d 46 51 3d
       0.026861032 0.048113782 0.049601804 0.051092375
0001c0 b3 db 17 bc 84 f8 fe 39 55 e4 11 3d 72 19 24 ba
       -0.009268689 0.00048631814 0.035618145 -0.0006259895
0001d0 d8 0a 05 3a 1b 6e b7 3d 8b 4a d0 bc 08 8b 2d bd
       0.0005075163 0.08956548 -0.02542617 -0.04236892
0001e0 ef 02 9d 3c 9d a5 41 3d b9 fb 85 3d 45 a6 78 bc
       0.019166438 0.04727708 0.06542153 -0.0151763605
0001f0 88 ae ab 3a 55 35 b1 3d 7c 90 a3 bc 30 f1 0c 3c
       0.0013098279 0.086527504 -0.019966356 0.008602425
000200 0a 86 ce 3d 87 46 49 bd 7f e1 62 3c db 41 25 3d
       0.1008416 -0.049139526 0.013847708 0.040346008
000210 0f 64 ac 3b 6a 15 9f bc 32 95 5c 3c 3c 08 81 bd
       0.0052609514 -0.01941939 0.013463305 -0.06300399
000220 16 08 0c 3e 2e 5d f4 3c be ce 9e 3b a8 21 e6 3d
       0.1367496 0.029829588 0.004846423 0.11236888
000230 76 3b 93 3c bd 92 d8 3c 0a bf 85 3d d4 07 80 3d
       0.01797269 0.026437158 0.065305784 0.06251493
000240 b3 27 18 3d fe 57 db 3c b3 c4 37 3d 34 02 dd 3d
       0.037147235 0.026775356 0.04486532 0.10791436
000250 2d 92 7f 3d 25 42 b1 3d af 59 85 3d eb de 96 3d
       0.062395263 0.08655194 0.065112464 0.07366737
000260 cf 0c b8 3d 46 75 17 bd 3a c7 f4 3d 1e ae e0 3c
       0.08986818 -0.036977075 0.11952062 0.027426776
000270 a7 d3 83 3d 0d 51 7e bd 1c fd 0d bd ff 1b 82 bb
       0.06436854 -0.062089015 -0.034665212 -0.0039706226
000280 71 ca 0b 3c 0b 56 ea bc 6b ba d9 bc 21 e5 ae bd
       0.0085321525 -0.028605482 -0.026578149 -0.085397966
000290 76 02 17 3c 0e 5c 57 3d 36 c9 bc bd e0 bc 75 3d
       0.009216895 0.052578025 -0.092180654 0.05999458
0002a0 52 68 cc bd 0b d1 ae bd 3b e7 01 3d 71 f5 0f bd
       -0.09980835 -0.085359655 0.03171466 -0.03514618
0002b0 5b ce a2 3d 4c c2 30 bc c2 3f 0c 3d 3b da 70 3d
       0.079495154 -0.0107885115 0.03424049 0.05880187
0002c0 2a a2 23 3d 98 8e 89 bd a6 e9 ef 3b 1a 92 84 bd
       0.039949574 -0.06716651 0.0073215542 -0.06473179
0002d0 39 a1 d5 3c 20 83 34 3d 98 0f 35 bd 9e 35 04 bd
       0.026077854 0.044070363 -0.044204324 -0.032277696
0002e0 95 b4 38 bd 10 76 ad bc 05 e6 8f 3d 06 f2 8b 3d
       -0.04509409 -0.02117446 0.070262946 0.06833272
0002f0 e1 42 9a 3d f7 e7 38 3d b2 1f 8b 3c 6d fb 14 3c
       0.075322874 0.045143094 0.016982887 0.009093148
000300 1b 07 7a 3d 71 ea 48 bd b2 d1 93 3d b7 a1 b8 bd
       0.061041933 -0.049051706 0.072177306 -0.0901522
000310 e8 ac 04 bd 23 55 34 3c 24 2f 83 bc 68 e9 33 3c
       -0.03239146 0.011006626 -0.01601369 0.010980941
000320 62 5a 90 3d 99 45 98 3c 0c 3f 93 3d df b5 d9 3c
       0.07048489 0.018587874 0.071897596 0.02657598
000330 5a 16 ca 3c f8 d7 fe bd d9 d3 2d 3b dd be cf bd
       0.024668861 -0.124435365 0.0026523976 -0.10143826
000340 76 72 c7 bd 2f 4d a9 3b aa 7a af 39 90 c7 9e ba
       -0.097386286 0.0051666717 0.00033469993 -0.0012113918
000350 8c 25 54 bd bb 97 3e bd 64 33 7c bd af 7d ff bd
       -0.05179362 -0.04653142 -0.061572447 -0.12475144
000360 1e 41 c6 bd 25 41 eb bd 2f 4b 12 3d df 82 b8 3c
       -0.09680389 -0.11487035 0.035716232 0.022523342
000370 c9 4f 0a bd b4 29 73 3d 81 c6 fb bc 62 02 30 3c
       -0.033767495 0.059365943 -0.030734302 0.010742756
000380 b5 6f 3f 3d fb 5a 74 3d c9 0b c0 bd a5 0f 4d bd
       0.04673739 0.05965708 -0.09377248 -0.050063748
000390 c3 b8 0f bd 85 c8 2f bd 13 3c 0b bd bb 88 9e 3b
       -0.035088312 -0.04291584 -0.033992838 0.004838077
0003a0 1d b9 cb bc 16 ad 41 bd e0 9d 49 bd 08 79 08 39
       -0.024868542 -0.04728421 -0.049222827 0.00013015058
0003b0 f3 c6 0c 3d 61 20 c4 bd bb 88 ee 3b 2f 16 78 bc
       0.03436942 -0.09576488 0.007279483 -0.015142008
0003c0 c2 71 e7 bc 82 c5 5f 3d 99 70 67 bd 2e cb 29 bd
       -0.028252486 0.054631718 -0.056503866 -0.041453533
0003d0 6b f8 68 3c 75 68 87 bd ba e3 c4 bd 08 f9 bf bd
       0.014219384 -0.066117205 -0.09613748 -0.09373671
0003e0 a9 b4 be bc 8a e1 5f bd 2f 97 25 3c 42 79 15 3c
       -0.023279505 -0.05465845 0.010106846 0.009123148
0003f0 7f 71 45 3d f9 9b b1 3c 62 5d 8f 3d b0 6b bf 3d
       0.04820394 0.021680819 0.07000233 0.09346712

lstm.weight_hh_l0 f4 [512, 128]
000000 6b ad 2d bd f5 ee 9b 3d 3e 19 d6 bc d4 4a ea 3d
       -0.042401712 0.07613937 -0.026135083 0.114400536
000010 b6 41 03 bd 59 95 b9 3d 60 f0 3e bc b7 cc ee 3d
       -0.03204509 0.09061689 -0.01165399 0.1166014
000020 19 25 e1 3d 02 01 b3 bd 12 84 a2 3d f2 37 43 bd
       0.10993404 -0.087404266 0.07935347 -0.047660775
000030 0d ab 01 bd e5 9c 3f bd 06 38 1a bb c8 fb 2e bc
       -0.031657267 -0.046780486 -0.0023531928 -0.0106801465
000040 49 84 44 3d 8a e0 8f 3c a6 81 29 3e 1d e5 6d be
       0.04797772 0.017563123 0.16553363 -0.23231931
000050 0f 95 b3 bc 72 82 c5 3d 32 bc c0 bc 49 59 06 be
       -0.021921663 0.09644021 -0.023527239 -0.13119997
000060 94 bb 9d bd f1 2f b1 3b 08 45 de 3d e9 71 b2 bd
       -0.07701793 0.0054073264 0.108530104 -0.08713133
000070 2e 10 9c bd a0 d7 9e 3d 1e 19 79 bd b6 1f 18 bc
       -0.076202735 0.07755971 -0.06081497 -0.009284904
000080 7a 84 b3 bb fe 0e 0b 3d 67 7d 71 3c 35 8a 6c 3d
       -0.005478439 0.033949845 0.014739371 0.057748992
000090 7e dc 57 be da 61 68 3e 51 2b c2 3d f6 f4 bb 3d
       -0.21080205 0.22693577 0.09480918 0.09177582
0000a0 47 9b 92 3d a1 4b 9e 3d d6 03 ed bc 05 0b ce bd
       0.07158523 0.07729269 -0.028932493 -0.100606956
0000b0 5c 71 eb bd 78 6a bd 3d 96 45 79 bd 56 c4 1c 3e
       -0.11496231 0.09248823 -0.060857378 0.15309271
0000c0 32 f4 38 be 20 ea a0 bc be 6d 41 bd ac 18 c3 3c
       -0.18061903 -0.01964289 -0.0472238 0.023815475
0000d0 d3 53 20 be b5 50 56 3d 05 45 8e 3d 89 0b b2 3c
       -0.15656976 0.052323062 0.06946758 0.021734016
0000e0 1b cf 19 3d 51 f2 5f 3d 66 48 e9 3d e9 4e 42 3d
       0.037551027 0.05467445 0.11390762 0.047438536
0000f0 8a 8c 2e 3b 83 99 f7 bb 68 7d 2a 3d 57 35 33 be
       0.002663406 -0.007556142 0.041623503 -0.17500816
000100 fa b5 0a be 42 55 04 3c 26 d3 d4 bd df d6 71 bb
       -0.13545981 0.008076968 -0.10391836 -0.0036901755
000110 8a 75 91 3d 02 9b e4 bc 92 c2 48 bd 6c 95 d8 bc
       0.07102497 -0.027905945 -0.04901368 -0.026438437
000120 04 44 5c 3d 97 8d 5d bd de da 27 3d 46 be dc 3c
       0.053775802 -0.05409011 0.040980212 0.026946198
000130 d9 48 60 be 78 60 fa 3d 7d 88 a6 bd 21 a2 43 3c
       -0.21902789 0.12225431 -0.08131502 0.01194051
000140 a0 47 91 3d 25 91 b2 bd dc d1 7c 3d c0 27 c1 3b
       0.070937395 -0.0871909 0.061723575 0.005894631
000150 3c bd 52 3e c1 d8 df 3c c9 7a 78 be 03 f4 a2 bc
       0.2058 0.027325036 -0.24265589 -0.019891744
000160 f0 61 4e bd 17 e0 02 3e 27 a5 b6 3d b4 de a8 bd
       -0.05038637 0.12780796 0.08918219 -0.08245602
000170 9b 46 53 3d 39 e2 30 bd e8 35 17 3d 7d 19 ea 3d
       0.051581006 -0.043184493 0.036916643 0.11430643
000180 5c 89 20 bd ad 8e 9e 3d 4e 38 05 3d b3 fe 9e bc
       -0.039193496 0.07742057 0.0325244 -0.01940856
000190 fc 63 c3 bd 1a c6 29 bd f1 48 09 be 8c 0c 4c be
       -0.09540555 -0.04144869 -0.13406731 -0.19926661
0001a0 0d 46 04 3e 97 15 a8 3d e7 0c 90 3d 6a ac dc 3c
       0.12917347 0.08207243 0.07033711 0.026937682
0001b0 09 57 a6 3d 7c a2 67 3d cd 28 17 bc 97 f1 c4 3d
       0.081220694 0.05655144 -0.009226036 0.09616392
0001c0 35 42 04 3e 13 8d 1e be e9 7f d7 bd 73 63 a0 bc
       0.12915881 -0.15483503 -0.10522444 -0.019578671
0001d0 8e d3 6f 3d 39 b7 32 3d 6a a8 95 3d b0 5b 77 bd
       0.058551364 0.043631766 0.07307513 -0.060390174
0001e0 18 dc be bd 6a d6 9c bd f0 bb ee bd cd 77 8c bd
       -0.09319323 -0.07658084 -0.1165694 -0.06858788
0001f0 e7 d9 33 3e 2e 6c bf bd 13 c7 aa 3d 21 80 8c 3d
       0.17563592 -0.093468055 0.08338752 0.06860376
000200 f7 4d 01 3e 5e cb b0 3d 8c 28 3e 3d d2 b1 82 3e
       0.12627397 0.08632539 0.046425387 0.2552629
000210 9e 10 70 3e 9a 61 00 3d df ce 10 bd 69 6c 0b 3e
       0.23443839 0.03134308 -0.035353538 0.13615574
000220 0d b6 8f 3e 6f c2 15 3d 92 3a bb 3d 4c 73 3c 3c
       0.2806858 0.03656238 0.09142031 0.011502098
000230 a2 82 87 be a9 1f c3 3b 19 f9 91 3e 75 15 e6 bb
       -0.26466852 0.005954702 0.2851036 -0.007021601
000240 cf 25 4f 3e 36 20 04 3d 45 9f 26 3d 78 28 6d be
       0.20229267 0.03225728 0.040679235 -0.23159969
000250 7b 53 a0 3d df cf e4 bd 2a 1e 11 be e8 33 26 ba
       0.07828423 -0.11172461 -0.14171663 -0.0006340132
000260 34 39 a2 bc 6c 87 0a 3d ee 45 36 3e f0 a6 c9 bd
       -0.019802667 0.033820555 0.17800114 -0.09846294
000270 45 da 5b 3d 21 d3 8c 3e 5f 8d 1e be 58 2f 65 bd
       0.053674955 0.2750483 -0.15483616 -0.055953354
000280 b8 17 1c 3d 4b fb 1a 3e 3c 9d 3c 3d e6 16 6b 3d
       0.038108557 0.15134923 0.046048388 0.057394885
000290 85 8c 16 be 3f 50 68 3c df a9 6b 3e ec 62 50 3e
       -0.14702041 0.014179288 0.2301402 0.20350236
0002a0 35 ad 67 3c 86 bd 2b be f4 89 2f 3b dc 8e 15 bd
       0.014140417 -0.16771516 0.0026785107 -0.036513194
0002b0 8b 5b 93 bd 84 16 29 be 1f 23 f7 bd be 95 b7 3c
       -0.07195195 -0.16512495 -0.12067246 0.02241027
0002c0 06 8f fa 3b 53 be 52 3d 2e a7 53 bd e6 2e 8a 3d
       0.0076464443 0.05145104 -0.051673107 0.067472264
0002d0 c4 7e 19 bd 9c a9 aa 3d d3 a6 c9 bd 71 ec 25 3d
       -0.03747441 0.08333132 -0.09846272 0.04050869
0002e0 85 31 8a bd 56 3e 2d be 56 c3 7b bc 57 43 b3 3c
       -0.06747726 -0.1691831 -0.015366396 0.021882696
0002f0 ae 93 ca 3c 72 55 ed bd 9c 0d c5 3d b6 d0 72 bd
       0.024728622 -0.11588563 0.096217364 -0.059281074
000300 a1 80 fa 3d 4c c5 56 bc bb 0e 11 bd 01 06 7b 3d
       0.12231565 -0.013108563 -0.03541444 0.061285023
000310 fd 59 53 bd 14 38 2e 3e 39 d2 80 bd 2f 32 01 be
       -0.05159949 0.1701358 -0.06290097 -0.126168
000320 f5 ec 05 3e 7a 62 0f be 67 ac 19 3e 4d 9c 09 3e
       0.13078673 -0.1400241 0.15007173 0.1343853
000330 f6 ec 86 bc 84 75 16 3e 82 72 9a bc 26 98 9d 3c
       -0.016470414 0.14693266 -0.01885343 0.01923759
000340 41 c3 64 3e 43 d6 c4 3d b4 71 8f 3b d8 1d f8 bb
       0.22340108 0.0961118 0.004377568 -0.007571917
000350 58 f5 50 3d f7 ea 75 bd a8 01 a3 bb 53 8c 10 bc
       0.051015228 -0.060038533 -0.0049745627 -0.008822518
000360 a6 0b 2e be 13 56 67 3d 09 aa 03 bb 00 89 b8 3c
       -0.16996631 0.05647857 -0.0020090363 0.022526264
000370 07 a5 b7 3d 5a 6f 6b be 41 bc 87 bd a6 6d f6 3d
       0.08967023 -0.22991696 -0.066277035 0.120326325
000380 0e c3 14 3d 85 fe 72 bd c9 86 00 be 9c 25 13 3e
       0.03631883 -0.05932476 -0.12551416 0.14369816
000390 d7 fc 1e be bf 85 1b bd db 75 07 bd 9f 43 77 bd
       -0.15526138 -0.037969347 -0.03307138 -0.060367223
0003a0 60 b7 94 3e eb 08 12 3e 99 9f 23 3c 64 1b de bd
       0.29046154 0.14261214 0.0099867815 -0.10845068
0003b0 24 63 4e 3d 5b bb 6e 3e 3c 14 ef 3d 98 56 9e 3d
       0.050387517 0.23313658 0.11673781 0.0773136
0003c0 f3 36 4a bd ac a3 5e 3d f0 fc ef 3c 66 31 9c 3d
       -0.04936881 0.05435531 0.029295415 0.076266095
0003d0 e2 f4 a4 3d e6 e3 19 3c d8 fd c7 bd 6e ae c3 3c
       0.0805452 0.009392714 -0.09765214 0.023886885
0003e0 8e c4 97 bd 9f 71 3e 3d 2c b5 a5 be 19 69 02 3d
       -0.07410537 0.046495076 -0.32364786 0.03183851
0003f0 44 f6 13 be 2d ab 72 bc f5 0d 28 3e fe 37 a9 be
       -0.14449412 -0.014811319 0.16411574 -0.3305053

lstm.bias_ih_l0 f4 [512]
000000 08 a7 7e bc c4 c1 ae 3e 0b c4 0f bd d3 da 91 3c
       -0.015542753 0.34132206 -0.03509907 0.017804539
000010 b5 34 bc 3e 24 89 3a 3e 97 28 12 3f 32 5f 54 3e
       0.36758962 0.18216377 0.57093185 0.20739439
000020 07 7f 8d 3d d0 54 b1 3e fd 41 dd 3d e0 f8 45 3d
       0.06908994 0.3463502 0.10803602 0.04833305
000030 df c5 aa 3e e5 53 3f 3d 34 47 34 3e 53 6a 11 3d
       0.3335409 0.046710867 0.17605287 0.03550179
000040 8e cf 54 3d 60 28 1a 3d 6d ae 82 3d d4 0c f7 bc
       0.051955752 0.03763616 0.06380925 -0.030157484
000050 f0 a8 92 3e 18 69 82 bc 29 b7 24 bd d8 09 38 3f
       0.28644514 -0.015919253 -0.040213738 0.7189002
000060 9d 69 b4 3e 5a cc ac bd e3 4b b0 3e 45 31 02 3d
       0.35236827 -0.084374145 0.34432897 0.03178527
000070 45 e2 da 3c be dd 80 3e d0 a6 fc 3d ed 1a 45 3e
       0.026719222 0.25169176 0.123365045 0.19248553
000080 c4 26 9a 3d 58 ff dc 3d 8b 7b 34 3e 29 d6 93 3c
       0.07526925 0.107908905 0.17625253 0.018046455
000090 39 7c cb 3d c1 2a 30 bd 53 c7 0a 3e 61 76 3a 3e
       0.09935803 -0.043009523 0.13552599 0.1820922
0000a0 9c 8d e9 3d 8a 26 9b bd 53 d2 81 3e 34 5b 7e 3e
       0.11403963 -0.0757571 0.25355777 0.24839479
0000b0 c3 e0 5d 3e 53 73 7a 3d 0c 07 e3 3d 77 26 24 3e
       0.21667771 0.061145138 0.110853285 0.16030298
0000c0 62 16 b4 3d cf c4 5e 3e cc a8 02 be df 3d 72 3d
       0.08793332 0.21754764 -0.12759703 0.059141036
0000d0 c5 bb 3a 3e 29 10 03 3d d5 85 d5 3d 5e 37 8c 3b
       0.18235691 0.031997833 0.10425917 0.004279061
0000e0 af c6 ae 3e c4 37 df 3b 0b 98 c5 3c 81 e1 17 3c
       0.3413596 0.0068120677 0.024120351 0.009270073
0000f0 0f c4 b9 3d df 6a 0c bd 02 13 dd 3d 8a 27 f6 bb
       0.09070598 -0.034281608 0.10794641 -0.0075120376
000100 61 79 10 3e 4c f2 0d 3e 3f 78 c8 bd 24 05 03 3e
       0.14108802 0.1386196 -0.0978856 0.1279493
000110 91 43 0a bc 02 be 24 3d de 16 1f be 3b d0 17 be
       -0.008438961 0.040220268 -0.15536067 -0.14825527
000120 16 f9 4d 3e 2f ce 3e 3e 37 f2 44 3e bb 2d 0a bd
       0.2011455 0.1863334 0.19233023 -0.03373502
000130 32 31 c0 3d 08 06 07 3e 0c c9 91 bd a9 4f e2 bb
       0.09384383 0.13185894 -0.07118425 -0.006906469
000140 6b 53 fe 3d 00 9c 11 bd 1b d0 4b 3d b2 4b 1c 3c
       0.124182545 -0.035549164 0.04975901 0.009539532
000150 dd aa a8 3e e7 81 6e 3d 1c fd 07 3e 06 e1 17 3c
       0.32942858 0.058229353 0.13280147 0.009269958
000160 10 4d 4a 3d c6 ae b9 3d 08 2d bd 3d b9 50 b3 bd
       0.0493899 0.090665385 0.09237105 -0.08755631
000170 fd 37 10 3d 89 d6 57 3e 37 2e 20 bd 1f 7c a1 3d
       0.035209645 0.21077932 -0.039106574 0.07885002
000180 0b c6 45 3e 06 1c e8 bd 29 a9 53 bd b3 71 08 bc
       0.19313829 -0.1133347 -0.051674996 -0.008327889
000190 e8 4e 98 bd 76 d7 b5 3e 5c 63 e9 3d 5e b7 e6 3d
       -0.07436925 0.35515946 0.113959044 0.11265443
0001a0 00 fd 46 3e 09 7f 4a 3e 5e 5d 96 3e 1d 37 e8 3d
       0.1943245 0.19775023 0.2936811 0.11338637
0001b0 38 42 a8 bc 19 55 18 bd 5b 4a 81 3d 8c 9c 4d 3e
       -0.020539388 -0.03719053 0.0631301 0.20079249
0001c0 30 eb 0f 3b 52 39 e1 3d 8e df 1e 3d 83 a4 10 3e
       0.002196025 0.10997261 0.038787417 0.14125256
0001d0 09 78 86 3e 95 20 a5 bd 96 45 0c 3e 0a 02 1b 3e
       0.26263455 -0.08062855 0.1369842 0.15137497
0001e0 56 4e 0f bd d7 37 31 3e e9 90 3d 3e 6c 90 ab 3e
       -0.034986816 0.17306457 0.1851231 0.33508623
0001f0 3a fc bd bd 8e 9c 15 3d 93 d3 5f 3d 26 16 36 3c
       -0.09276624 0.036526255 0.054645132 0.011113679
000200 50 50 41 3e c9 6d af 3d e7 6d 49 3e 1d 24 0a bd
       0.18878293 0.08565862 0.1967083 -0.033725847
000210 7c de 62 3d 08 89 93 3d b1 8c 28 3e 53 03 09 be
       0.05538796 0.07203871 0.1645992 -0.13380174
000220 fd 37 5e bc 40 3a 83 3e 1a 32 26 bc 25 6f a4 bd
       -0.013563153 0.2563038 -0.010143781 -0.08029012
000230 9e bb 52 bd 63 82 f0 bd 04 9f 72 3c 46 1b b1 3c
       -0.051448457 -0.11743619 0.01480842 0.02161945
000240 6a ab b3 bd 10 90 4a 3d 5e 81 9d bb 03 31 65 bd
       -0.08772929 0.049453795 -0.0048066815 -0.055954944
000250 ad e3 30 3e b1 3c a7 3d af f5 ee bb 80 a1 c5 3e
       0.17274351 0.08165873 -0.0072924714 0.38599777
000260 8c 52 f4 3d 3e 95 46 bd 0a a1 e4 3d a6 10 af 3d
       0.11929807 -0.048482172 0.11163528 0.08548097
000270 07 49 47 bc 46 88 43 bd 78 c5 00 3e 9a 60 ff 3d
       -0.012163407 -0.047737382 0.12575328 0.12469597
000280 f7 da 0c 3e 8f 80 cb bd a7 94 33 3e 39 3a 8c 3d
       0.13755403 -0.0993663 0.17537175 0.068470426
000290 ad 9d 85 3d f9 f6 b0 3c a7 d1 9a bd bb 83 38 3e
       0.06524215 0.02160214 -0.07559519 0.18019001
0002a0 21 c5 ee 3c e4 42 8c bd 5e da 2d bd bb b1 36 3e
       0.029146733 -0.06848696 -0.04244458 0.17841236
0002b0 24 93 01 bd dd ef 35 bd 99 48 ba 3d 19 91 4b 3c
       -0.031634465 -0.044418205 0.09095878 0.012424731
0002c0 e4 68 5f 3e da 31 fa bb 6d 5a 79 3d dd 81 0a bd
       0.21817356 -0.0076353373 0.060877252 -0.033815254
0002d0 87 ec f1 3d c8 8a ff bc 96 c6 d9 3d d8 58 4f 3e
       0.11812692 -0.031194106 0.106335804 0.20248735
0002e0 6a 45 22 bd db 99 32 bb f9 a1 c3 3d 8a 25 0d 3e
       -0.03961698 -0.002725235 0.09552378 0.13783851
0002f0 f4 d9 28 be 59 7e e3 3d af 97 86 bd 22 4f 37 3e
       -0.16489393 0.11108083 -0.065719 0.1790128
000300 59 bf 6f bd d1 d4 40 bd ed 79 a8 3c 8c 25 9e 3e
       -0.058532093 -0.047077958 0.020565951 0.3088802
000310 32 f9 6f bb 79 2f 87 3b 0b 01 cb bd b6 21 9c 3d
       -0.0036617038 0.004125532 -0.09912308 0.07623617
000320 6c 73 07 3e 1a 2f 3b bd f7 40 49 bd 16 0d b4 bd
       0.13227624 -0.045699216 -0.04913422 -0.087915584
000330 01 c1 76 3e 65 c4 1a 3d b2 c4 46 bd 19 3c 7e 3d
       0.24097063 0.037784953 -0.048527427 0.062069032
000340 23 ca ad 3d 76 43 83 3b e3 10 9c 3c ac 8d 0b 3e
       0.0848582 0.0040058447 0.019051021 0.13628262
000350 ad 15 50 3c e4 95 61 3c 60 3d 13 3e 5a 3c 8a bd
       0.01270048 0.013768647 0.14378881 -0.067497924
000360 11 30 11 3e 5d 47 ec 3c e5 b1 9f 3c dc 24 c5 3d
       0.14178492 0.028842622 0.019494006 0.09626171
000370 bd 7a 9e bc 8c 6a 16 be 82 a7 c0 3c a1 b5 5d 3d
       -0.019345636 -0.14689082 0.023517374 0.054128293
000380 3f e2 81 bc 62 31 17 bd 18 0c 2b bd 76 6f 37 3d
       -0.015854953 -0.03691233 -0.04175958 0.04478403
000390 45 97 c2 3d be 9a 68 bd 64 fe 0f 3d 3f 6c b9 3d
       0.095015086 -0.0567882 0.035154715 0.090538494
0003a0 d9 fe 78 bd cb c1 f5 3d 33 45 8d 3b 97 e5 39 bd
       -0.060789917 0.11999854 0.0043112277 -0.04538497
0003b0 aa 2c b4 bd f1 52 e2 bb 60 4c 6e 3e ed b7 78 3d
       -0.087975815 -0.00690686 0.23271322 0.06072228
0003c0 0d e4 7d 3d 89 0e 25 3e ae 28 8a 3d 45 ed f7 bd
       0.061985064 0.16118826 0.0674604 -0.121058024
0003d0 f7 9c 34 bd 45 25 01 bd d1 ac dc 3d 5b da ad 3d
       -0.044095006 -0.031529684 0.107751496 0.084889136
0003e0 a0 4d e7 3c fe 3d d7 bc 78 47 ee bd 9d 6a a3 3d
       0.028235257 -0.026274677 -0.11634725 0.07979319
0003f0 97 36 0d 3e 74 72 81 bc 8b 28 f7 bd c0 d9 82 3d
       0.13790356 -0.015801646 -0.1206828 0.06389189

lstm.bias_hh_l0 f4 [512]
000000 67 ad e5 3d 62 1e bb 3e 78 4f db 3c dc 78 af 3d
       0.112147145 0.36546618 0.026771292 0.08567974
000010 ac da ac 3e a3 b0 42 3e 05 27 0e 3f 1c 6e a9 3d
       0.33760583 0.19012694 0.5552829 0.08272955
000020 e2 e5 17 3d 3e de 8b 3e 9b 2a 11 3c 99 41 ac 3c
       0.037084468 0.27317995 0.008860256 0.021027373
000030 a3 05 5a 3e 31 a0 1a 3d 3e cb 13 3e c0 70 62 bd
       0.21291213 0.037750427 0.14433 -0.055283308
000040 40 24 0f bd ac 60 75 3d 5a 5c 7a 3c 92 eb c0 3d
       -0.03494668 0.059906647 0.015280807 0.094199315
000050 7d b1 b4 3e 93 78 b1 bd 7e 64 39 bd 5b 52 2d 3f
       0.35291663 -0.08665576 -0.045261852 0.6770379
000060 d5 f9 4f 3e 7a 6d 9c bd 84 a1 8f 3e 1c c2 97 3d
       0.20310147 -0.076380685 0.28052914 0.0741007
000070 f9 ad bc bd 5e 1b 5e 3e 5f 22 75 3d df 6e 1c 3e
       -0.0921287 0.21690127 0.059847232 0.15276669
000080 cb d8 00 3e 6a 80 1a bd 72 b4 c5 3d 4c 87 97 bd
       0.125827 -0.03772012 0.09653558 -0.07398853
000090 0c 45 13 3d fd 8f fe bc f5 0f 01 3e c0 5a b9 3d
       0.03595452 -0.031074518 0.12603743 0.09050512
0000a0 a0 e2 1c 3e 36 d0 68 bd 08 8e 79 3e 06 81 98 3e
       0.15320826 -0.05683919 0.24370587 0.29785937
0000b0 6e 1e 55 3e 3a 2a e9 3d e4 08 0c bd 02 75 65 3e
       0.20812389 0.11385007 -0.034188166 0.22407916
0000c0 60 4a cb 3d 01 3f 7c 3e 18 6f 8c bd 20 f2 a3 3c
       0.09926295 0.24633409 -0.06857127 0.020012915
0000d0 83 df 5a 3e 3a 08 84 3b f1 2b 1e 3d 97 9b 59 3c
       0.21374325 0.004029301 0.038616125 0.013281724
0000e0 91 28 7f 3e 98 1d 90 3d 64 e0 b7 3d 8c bd 82 bc
       0.24917819 0.070368946 0.08978346 -0.015959524
0000f0 16 9f 28 3d d4 d9 a0 3d a0 b0 55 3d 75 d2 c2 3d
       0.04116734 0.078540474 0.052170396 0.09512798
000100 14 7c 62 3e e3 e1 24 3e aa 56 20 be 78 63 6a 3d
       0.22117645 0.16101794 -0.1565806 0.057223767
000110 a4 d2 a8 3d c1 a2 e4 bc 14 2e 1d bd 53 2f 11 be
       0.082433015 -0.027909638 -0.03837402 -0.14178209
000120 4e 7c 5c 3e 15 60 ff 3d dc 03 f9 3d 95 eb 57 3d
       0.21531793 0.12469498 0.12158939 0.052714903
000130 08 a5 46 3e 31 49 76 3d 60 00 8e 3d d9 f3 d0 bc
       0.19398892 0.060128395 0.06933665 -0.0255069
000140 9f 81 22 bc 00 23 9c ba ee 5c bb 3d 91 ab b1 3d
       -0.009918599 -0.0011912286 0.09148584 0.08675302
000150 59 84 ae 3e 5d e5 68 3d f1 db 17 3d 67 af 88 bd
       0.34085348 0.056859363 0.037074987 -0.0667408
000160 c2 81 31 3e 3a 76 75 3e 94 f0 64 3d 41 16 b9 bd
       0.17334655 0.23970881 0.055893496 -0.09037448
000170 03 83 39 bd bc b3 2a 3e 6f 18 81 3d 78 eb 5d bd
       -0.045290958 0.16670126 0.063034885 -0.05417964
000180 99 94 1f 3e bb 15 dc bc 95 b6 aa bc 7a 25 ac 3c
       0.1558403 -0.02686583 -0.020839015 0.021013964
000190 7b 89 c5 bc 0f a5 bd 3e 79 70 d2 3d 7a 0b 25 3d
       -0.024113407 0.37039992 0.10275359 0.040294148
0001a0 75 59 a6 3e 2a 9b 5c 3e 60 26 24 3e d3 8f bb bc
       0.32490125 0.21543565 0.16030264 -0.02289573
0001b0 88 20 44 3c 58 53 d1 3d da 53 ee bc 56 f3 12 3e
       0.011970647 0.10220975 -0.029092718 0.14350638
0001c0 93 24 1c 3d 77 71 28 3e 99 d8 e4 ba 29 58 42 3e
       0.038120817 0.16449533 -0.0017459571 0.18978943
0001d0 0b c5 57 3e e9 8b 23 bc 22 46 ae 3c ae 2b 2b 3e
       0.2107126 -0.009982088 0.021273676 0.16715881
0001e0 73 b0 64 bb 4d 2d 00 3e d7 28 5d 3e 77 0c 5a 3e
       -0.003489521 0.12517281 0.2159761 0.21293817
0001f0 a6 7a cb bd 2b 27 5f 3c df 43 7e bd 4d de 4b 3d
       -0.09935503 0.013620178 -0.062076446 0.04977255
000200 8f fc 2f 3e eb a3 a1 3d 58 bc 02 3e 19 83 76 3c
       0.17186187 0.07892593 0.1276716 0.015045905
000210 2c ad 2e 3d 9e 52 d8 3c cd a2 40 3e 2d 02 06 be
       0.04264562 0.026406582 0.18812104 -0.13086767
000220 44 ea dc 3d 84 ec 75 3e 0e bc e0 bd ab 13 a8 bb
       0.1078687 0.24016005 -0.109733686 -0.0051292977
000230 3b 07 18 be 80 de 2f be 65 73 af bd 68 9a 16 bc
       -0.14846508 -0.17174721 -0.08566932 -0.009192087
000240 c0 c5 5d bd 1a 63 08 bd d7 d8 0c 3d 3f fd 03 bd
       -0.054143667 -0.033297636 0.034386482 -0.032223936
000250 0c 40 aa 3d 68 cf 08 bd 70 15 b2 bb 97 e0 b4 3e
       0.08312997 -0.033400923 -0.0054346845 0.35327598
000260 db 70 51 bc ae 29 df bc 7d 8e 07 3e 52 08 98 3d
       -0.0127832545 -0.027241554 0.13237949 0.07423462
000270 3e 6e a6 3d e7 ac 19 bc 10 d3 13 3e 61 ac 1f 3e
       0.08126496 -0.009379602 0.14435983 0.15593101
000280 98 8f 91 3c 48 ed 9a bd 35 02 15 3e 1e 65 90 bb
       0.017768666 -0.07564789 0.14551623 -0.0044065854
000290 e6 3e 88 3c 50 c5 45 bd cb 0b 2b be ed f1 47 3e
       0.016631555 -0.048283875 -0.16703717 0.19525881
0002a0 68 45 b5 bd f5 d3 fe bd b0 bc 8b bd 37 4c 29 3e
       -0.08851129 -0.12442771 -0.06823099 0.1653298
0002b0 25 78 0f 3c c2 7f 3a bd 67 a0 ab 3d c5 5b 41 3d
       0.008756672 -0.045531996 0.08380204 0.04720666
0002c0 55 49 2a 3e 8d 1d 80 3d c2 5f 04 3b 8f 34 ee bd
       0.16629536 0.06255636 0.0020198678 -0.116311185
0002d0 b0 18 28 3e b4 14 b9 3d 48 58 e0 3d 92 ac 4c 3e
       0.16415668 0.09037152 0.10954338 0.19987705
0002e0 13 1d 25 bb cf a4 f1 3d 23 be 9f 3d 11 c0 10 3d
       -0.0025194332 0.11799013 0.077999376 0.03533942
0002f0 77 45 e2 bd 3d 7b 7e 3e fc e2 20 be 5d fc 7a 3e
       -0.110484056 0.24851699 -0.15711588 0.24510331
000300 69 56 f8 bb 19 76 45 3d 3c f9 e3 3b 56 14 90 3e
       -0.0075786603 0.04820833 0.0069572013 0.28140515
000310 0d 45 13 3d 6f d1 c8 bc 45 79 e6 3b 31 11 42 3e
       0.035954524 -0.024513928 0.0070334994 0.1895187
000320 c2 e6 5a 3e 88 45 57 bd da ab f0 bd 04 f8 bc bd
       0.2137709 -0.052556545 -0.11751528 -0.09226993
000330 f3 1d 06 3e e5 c7 7f 3c 9b 97 b4 3d 30 42 83 bd
       0.13097362 0.015611623 0.08817979 -0.06409109
000340 a8 1d 90 3c 6c a8 58 3d c8 84 83 3d c6 35 da 3d
       0.017592266 0.052894995 0.064218104 0.10654788
000350 05 fa 04 bd 30 be f2 3d 2d f9 86 3d 5e 60 c3 bd
       -0.032465 0.11852682 0.06590495 -0.09539865
000360 2e ef 13 3c fd f1 00 be 6c 4c 8b 3d e6 59 a3 bc
       0.009029193 -0.12592311 0.06801686 -0.019940328
000370 09 eb 25 ba c2 f1 cc bd 76 61 01 3e 6f 56 d7 3d
       -0.00063292735 -0.10007049 0.12634835 0.10514533
000380 66 65 2f 3d 18 f6 88 bd 1f d8 82 3d 8a b4 d5 3d
       0.04282131 -0.06687564 0.06388878 0.10434826
000390 d9 ce 01 3e 0f 5d ea 3b 12 8e e8 3d 68 2d 55 3d
       0.12676562 0.0071522067 0.11355223 0.052045256
0003a0 dc 5a 99 bd a0 b6 27 3e f9 67 b3 3d 96 d4 18 3d
       -0.07488033 0.1637826 0.087600656 0.037312113
0003b0 94 25 d1 bd 01 9b 2d be b2 d4 02 3e 01 b2 6f 3d
       -0.102122456 -0.1695366 0.1277645 0.058519367
0003c0 0d f1 35 3e 27 ec 1a 3e d2 f0 8c 3d 64 23 90 bc
       0.17767735 0.15129147 0.0688187 -0.017595
0003d0 7b ea 3d bd 11 52 01 be 51 2d f2 3d 36 c5 09 3e
       -0.046366196 -0.12628962 0.1182505 0.13454136
0003e0 f4 96 da bd 1b d8 f8 bd c6 ec 90 bd 91 7a 00 3d
       -0.10673323 -0.12150594 -0.07076411 0.03136689
0003f0 f1 9d d4 3d cc c6 90 bd 55 a4 91 bd 2c 54 e2 3c
       0.103816874 -0.070691675 -0.07111422 0.027628027

lstm.weight_ih_l1 f4 [512, 128]
000000 48 32 49 bd 1e 9a ab bd 05 ad b1 3d 31 1f 1e 3b
       -0.049120218 -0.08379005 0.08675579 0.0024127478
000010 97 c0 8e bd 88 b2 a6 3d f3 01 14 be 16 a9 85 3d
       -0.06970327 0.08139521 -0.14453869 0.06526391
000020 74 a6 a9 3d 7d d4 25 be fd da 17 3e 5e 2b 14 bd
       0.082837015 -0.16194339 0.14829631 -0.03617417
000030 0c aa ea 3d 89 fa 58 bd ea ac 87 bd 5f 91 9f 3d
       0.11458215 -0.052973304 -0.066247776 0.07791399
000040 29 a1 ba bd 83 bb d5 3d 20 35 cc 3b bf 39 05 3e
       -0.0911277 0.10436156 0.006231919 0.1301031
000050 63 50 30 bc 21 9b 02 3d 4d e8 af 3d b4 5e 8c be
       -0.010761353 0.031886224 0.0858923 -0.27416003
000060 56 d3 3e bd 73 2b de 3c 9b 45 8b bd 35 51 4c be
       -0.046588264 0.027120328 -0.068003856 -0.19952853
000070 4e 2f 86 bd 9d 3c 8e 3c a5 15 f4 3d 3f 12 a3 3c
       -0.065519914 0.017362887 0.11918191 0.019906161
000080 f5 f3 33 bc eb d0 e2 bd 53 76 b5 bd 43 57 02 3d
       -0.010983457 -0.11075004 -0.08860459 0.0318215
000090 52 b8 ad 3d 04 60 a2 3d 33 55 2f be e2 b8 2a 3d
       0.08482422 0.0792847 -0.17122345 0.041680224
0000a0 b5 b6 57 3c cd c1 01 3c e5 3e 4e be 45 04 12 bd
       0.013166119 0.007919741 -0.2014118 -0.035648603
0000b0 72 71 13 bd 18 a6 2e 3d 5b 46 97 3b 11 d4 66 bd
       -0.03599686 0.042638868 0.0046165413 -0.056354586
0000c0 21 b9 3f be 43 b5 9e 3e ff 90 7c 3d b3 3a b8 3d
       -0.18722965 0.30997667 0.061661717 0.08995571
0000d0 7c b2 d3 bd 55 fd 4b 3d 21 77 eb 3c fd 1e 12 3d
       -0.103367776 0.049802143 0.028743329 0.035674084
0000e0 e5 01 76 3d 45 a1 f4 3d 80 f4 ae bd 8f ee 3c 3d
       0.0600604 0.11944822 -0.085427284 0.046125945
0000f0 27 8d 09 bc 0b d4 f6 3c 25 e9 c4 bc b3 7b 5b 3d
       -0.00839547 0.030130407 -0.024036953 0.053584766
000100 a3 34 ac bb 5d dd 92 be 24 a4 91 3d cb 89 95 3c
       -0.005255298 -0.28684512 0.071113855 0.018254181
000110 0a 33 72 bd b1 8e 0c 3e 79 1b ee 3b 63 08 1a 3d
       -0.059130706 0.13726307 0.0072664586 0.037605654
000120 8a a5 43 3d 5b 5a 92 3d c7 9c 1e be a9 ce af bc
       0.047765292 0.0714614 -0.15489493 -0.021460848
000130 a9 94 8d bd 56 cb fc bc bf 2b ae 3b b6 d3 09 3e
       -0.0691312 -0.030858677 0.0053152735 0.13459668
000140 4f 9d 4b bd 08 de 7b bd 4e b9 e4 b9 e1 c5 4b bd
       -0.049710568 -0.061491042 -0.00043625612 -0.04974926
000150 ca bc 9c bb 1c 0f ca 3d 8d df 8e bd 70 40 ba 3c
       -0.0047832476 0.09866163 -0.06976233 0.022735804
000160 e3 ac 15 3e 02 39 c3 3d 24 ac 1b be 84 c4 c9 3d
       0.14616732 0.09532358 -0.15202385 0.098519355
000170 8c 78 32 bd 33 64 0b 3d 0a 93 77 3d 1f ce e4 bd
       -0.043571994 0.034031104 0.06044296 -0.11172127
000180 16 b1 e2 bb 58 7f 39 3d b2 52 20 bd c1 a8 8d bd
       -0.006918083 0.04528746 -0.039141364 -0.06916953
000190 e7 90 01 3d 1b 2a 0e 3d 3c d1 93 3b b2 c9 82 bd
       0.03163233 0.034708124 0.0045110267 -0.063861266
0001a0 94 0f ce bd 1d 66 7f bd 42 ca ea bc d3 6d a3 3d
       -0.10061565 -0.062353242 -0.028660897 0.07979932
0001b0 50 e1 fe bd dd 15 39 be dd f8 b7 3d 7b 7c 02 3d
       -0.12445319 -0.18074746 0.08983014 0.031856995
0001c0 82 96 34 3e e9 82 29 bd 3f 47 40 bd 69 37 67 3d
       0.17635539 -0.04138461 -0.046942946 0.056449328
0001d0 8b 5f 82 bd 69 40 a7 bb 62 b6 cb 3d e2 28 94 bb
       -0.063658796 -0.005104114 0.09946896 -0.004521475
0001e0 96 5a ec bd f5 45 29 bd 2e f2 b4 3c 60 a8 cc bd
       -0.115407154 -0.04132648 0.022088137 -0.099930525
0001f0 bb 44 0e 3d 48 30 f0 bb c5 47 86 bb 22 86 dd 3d
       0.034733515 -0.0073299743 -0.004097911 0.108165994
000200 cc f2 83 bd 5e 0e b7 bb 7b 5b 3b 3d cd 44 4f 3d
       -0.06442794 -0.0055864295 0.04574154 0.050602723
000210 c0 41 1b be c9 6d b1 3c 7b 84 92 be ba 78 a3 bd
       -0.151618 0.021658795 -0.286167 -0.07982011
000220 a8 de 25 bd be 31 86 be 40 75 02 3d 4c 6d 01 bc
       -0.040495545 -0.26209825 0.0318501 -0.007899594
000230 d6 ef e5 3d 80 35 03 be 1a 98 0a be f1 fe d9 3b
       0.11227386 -0.12813377 -0.13534585 0.006652706
000240 70 4e 8c bd e7 03 e5 3b c3 83 48 bd 7e 95 76 3d
       -0.06850898 0.0069889906 -0.048953783 0.06020116
000250 3d 60 b6 bd c1 d7 54 3e 69 4f f9 3c 08 18 01 be
       -0.08905075 0.20785429 0.030433374 -0.12606823
000260 3c 0b e8 bd 1a 5f 02 bd 27 79 60 3d 88 1d af 3d
       -0.11330268 -0.031828977 0.05480304 0.085505545
000270 ab 13 6a bc 1c bd 67 bd 8d 70 92 3d 6d 29 62 bc
       -0.014286916 -0.056576833 0.071503736 -0.013803822
000280 c3 cd d8 3d 5e 58 30 be 65 9f 69 3d 87 39 90 3d
       0.10586121 -0.1722121 0.057036776 0.070422225
000290 e3 d3 f1 bc 0b 85 02 bd 5a 39 b3 bc e4 9b 9e 3c
       -0.02951998 -0.03186516 -0.021877933 0.019361444
0002a0 d0 95 cd 3b 4b fa 1c 3d 66 32 38 bc 3f e9 28 be
       0.0062739626 0.038324635 -0.011242485 -0.16495226
0002b0 e4 c8 c5 3d 61 8f 4f bd d0 5c 3b bd 06 b2 da bd
       0.096574575 -0.050673846 -0.04574281 -0.106784865
0002c0 f3 5f 85 be 94 24 70 3e 29 06 5a bd ac 6d 54 3d
       -0.26049766 0.23451453 -0.05322853 0.051862404
0002d0 03 10 2a be e4 6d 45 3d a9 f7 4b 3d 29 d6 72 3d
       -0.1660767 0.048200503 0.049796734 0.05928627
0002e0 2c 4f 57 bd 38 a0 ae bd 2b 07 90 3d d4 f4 a2 3d
       -0.05256574 -0.08526653 0.07032617 0.079568535
0002f0 c9 ea 64 3d 80 34 09 3e 3b 85 cc bd 1c a0 39 bd
       0.05588797 0.13398933 -0.09986349 -0.045318708
000300 ec 30 95 3d 23 31 1a be ec 3b e0 3c 1e d5 03 3e
       0.07284722 -0.15057807 0.027372323 0.12874267
000310 e2 a5 4c 3d ed 58 9d bc 1f e9 4a bd 6f 3f b8 3d
       0.049962886 -0.019207442 -0.049538728 0.08996474
000320 e3 ee 40 be d4 9c 31 3e 34 82 e5 bd 7f 6f 21 bd
       -0.18841128 0.17344981 -0.11206475 -0.03941297
000330 da dc f3 bd a6 27 ea bd a1 91 05 bd 22 b2 e9 bb
       -0.119073585 -0.114333436 -0.032609586 -0.007131831
000340 c1 e8 04 be cc 8b b2 bd c7 68 0e 3d ef 4a 07 bd
       -0.12979414 -0.087180704 0.034767892 -0.033030447
000350 67 f4 cc 3c 54 fe 09 3e 39 1f d4 ba cc dc 5f 3d
       0.025018884 0.13475925 -0.0016183621 0.054653928
000360 af 04 5d bc 8b 60 b6 3d e0 86 06 3e 7f b0 8c 3d
       -0.013489886 0.08905133 0.13137388 0.068696015
000370 90 3e ce bd 0f 2f f2 3c 8a a8 ca bd 27 c2 dd bc
       -0.100705266 0.029563455 -0.098954275 -0.027070118
000380 29 be c4 bc 0f 20 e9 3c 28 fc 07 bc a9 07 cd bd
       -0.024016457 0.02845767 -0.008299865 -0.10011227
000390 d4 60 da bc 5a 14 33 3d 70 2d 9b bd 44 9f 06 be
       -0.0266575 0.04372058 -0.07577026 -0.13146693
0003a0 d3 8e fe bc e9 e1 60 bd af 22 f2 bd 59 00 60 3d
       -0.031073963 -0.054902945 -0.118230216 0.05468783
0003b0 08 3f 0d 3d 49 42 ae 3c 50 63 a0 3d 7c 22 31 3e
       0.03448394 0.021271842 0.07831442 0.17298311
0003c0 bb 0d 6d 3e 9c 2f f5 bc 08 84 e5 3d 5d 59 de bd
       0.23149769 -0.029929928 0.112068236 -0.108568884
0003d0 8a 42 b4 bd 89 11 7b bd 1b 5a 69 3e 70 b6 bf 3d
       -0.08801754 -0.06129602 0.22788279 0.09360969
0003e0 36 54 26 bb 99 b2 91 3d ec 96 7f 3d d2 8b 41 3d
       -0.0025379783 0.07114143 0.06239979 0.047252484
0003f0 7e 02 85 3d c2 24 92 bc a6 eb 08 bc 44 3b df bc
       0.06494616 -0.017839793 -0.008356964 -0.02724994

lstm.weight_hh_l1 f4 [512, 128]
000000 31 c2 3c bc 75 2a 1a be b6 42 17 3c b8 fa 83 ba
       -0.011520908 -0.15055259 0.009232214 -0.0010069227
000010 31 3f 52 bd d4 f0 c2 bd cc 83 aa 3d 88 22 8b 3d
       -0.051329795 -0.095185906 0.083259195 0.06793696
000020 7b f5 21 bc e1 c2 02 3d 2b 30 aa bd 79 08 cb 3c
       -0.009885187 0.031924132 -0.083099686 0.024784314
000030 01 0f 5c 3d 85 90 bd 3c 1c 73 ae bd b7 91 72 3c
       0.053725246 0.023140201 -0.08518049 0.014805249
000040 4f 3b 63 bd e3 99 b1 3d 14 32 d4 bc 05 b2 46 bd
       -0.055476483 0.0867193 -0.025902785 -0.048509616
000050 62 4c 57 3d 4c 18 7d bd b2 cf 71 bd d1 08 0e bc
       0.05256308 -0.06179075 -0.059035964 -0.008669094
000060 de 23 a9 3a 88 c9 60 3d 1b 93 04 3d 05 0b cb bd
       0.0012904366 0.054879695 0.032366853 -0.09914211
000070 06 79 db bb 10 21 cf bc 77 c2 9b bc 85 df 8c 3c
       -0.0066977767 -0.02528432 -0.019013627 0.017196426
000080 20 86 f5 3c 73 50 ef bc 72 7a 8c bd b2 1a d0 bd
       0.029971182 -0.029213166 -0.06859292 -0.10161342
000090 2b 67 5b 3d 8c 83 90 bd 7a ab 0e 3e 2f d1 0c bd
       0.053565186 -0.070563406 0.139326 -0.03437918
0000a0 26 2f cb 3d b3 b9 ab 3d e4 31 ed 3c 3e c2 22 bd
       0.09921102 0.08385029 0.028954454 -0.039736025
0000b0 1b 24 74 3d 97 2c a5 bd 1a df 2a bd fd b1 31 3e
       0.059604745 -0.080651455 -0.041716672 0.17353053
0000c0 37 66 11 3d 23 e1 e0 bd cf 74 be bd 81 20 b7 bd
       0.03549787 -0.109804414 -0.09299623 -0.089417465
0000d0 0c 0f 32 3d 78 95 37 3d 66 ef 35 be 6a 0b 64 3c
       0.04347138 0.04482028 -0.17767105 0.013918737
0000e0 af c7 a9 3d d2 03 8f bd fe 92 cb bd 26 7f d0 bd
       0.0829004 -0.069831505 -0.09940146 -0.10180502
0000f0 48 10 86 3d ae 80 35 3d 01 09 3d bd 8a 43 86 bc
       0.06546074 0.04431217 -0.046151165 -0.016389627
000100 08 e6 8f 3b bb 8a e3 bc 7a 15 84 3d 91 ca a6 bd
       0.0043914355 -0.027776113 0.06449409 -0.08144105
000110 c8 c6 02 3d f3 9e f6 bd 79 e7 01 bd 43 ab 9c 3c
       0.031927854 -0.12042036 -0.03171489 0.019124633
000120 18 7c 8d 3c 1b 88 ec 3d cd 83 02 bd d0 b9 75 bd
       0.017271087 0.115493976 -0.031863976 -0.059991658
000130 33 b1 46 bc f3 8b 3d bd eb 73 da bd 62 48 ab ba
       -0.0121272085 -0.046276044 -0.10666641 -0.0013067836
000140 dc eb 4e 3d 56 91 4e bd 42 b7 28 bd 05 c4 e4 3d
       0.0505179 -0.050431572 -0.041190393 0.111702
000150 65 6f c2 3d 69 6d 14 3d 16 ca a1 3d 62 49 aa bc
       0.09493903 0.036237154 0.07899873 -0.020786945
000160 d4 d7 dd bd e5 5f 2e bd aa 95 ba 3d f7 7f ac 3d
       -0.108321816 -0.04257192 0.091105774 0.08422845
000170 2b 27 92 3d 6e 6e ae bd ac 23 96 3c 24 07 3d bd
       0.07136377 -0.085171565 0.018327557 -0.046149388
000180 88 68 ee 3c 1c ec c0 3c b1 69 81 3d cf b7 61 bd
       0.029102579 0.023550086 0.06318987 -0.055106934
000190 d5 bc e9 3d d1 36 e5 3c 86 b9 99 bd 21 37 88 3d
       0.1141297 0.02798024 -0.07506089 0.0665114
0001a0 ed 8d 63 bd 4a aa 85 3c 87 fa 99 3b d4 d4 85 bc
       -0.055555273 0.016316552 0.0046990546 -0.016336836
0001b0 6e 4d 0c 3e 53 21 39 3c 74 fd 3b 3d fa ed 22 bd
       0.13701412 0.011299449 0.04589601 -0.039777733
0001c0 b4 6e 13 be 7b 61 b3 3b 31 aa 82 3d 7f 1d 39 3d
       -0.14397699 0.005474267 0.06380118 0.045194145
0001d0 8e 62 8a 3b 2d 20 75 3d 6b c7 a5 bd 08 0a 8e 3d
       0.0042231744 0.05984514 -0.080946766 0.06935507
0001e0 5c e1 04 3d 05 ef 03 3e 7e 46 13 3d 23 88 aa 3d
       0.032441482 0.12884147 0.0359559 0.08326747
0001f0 d6 d2 b4 3d d0 4b 91 3c df 6e a5 3d b9 17 2c 3d
       0.08829276 0.017736346 0.080777876 0.04201481
000200 d0 4b 22 bd 8a 6c e0 bc ae 7c 9e 3d ac 81 2c bd
       -0.03962308 -0.027395505 0.077386245 -0.042115852
000210 b7 83 28 bd ef 96 86 bd c8 59 f3 3b d3 99 1c 3e
       -0.041141238 -0.06571757 0.0074264742 0.15293054
000220 7e fe 49 bd 6e a4 02 bc 51 59 fe bc 31 c9 0a be
       -0.04931497 -0.007973773 -0.031048449 -0.13553311
000230 65 06 09 3d c4 12 f7 3d 9c 10 90 bd 12 42 a0 3d
       0.033453364 0.12064126 -0.07034418 0.07825102
000240 f0 e6 1c 3c 5c 84 52 3d f3 70 03 bd c5 45 2f 3e
       0.009576544 0.05139576 -0.03209014 0.17116459
000250 18 30 65 3e 60 dc 07 3d c8 7a ac bd a3 8f 39 bd
       0.22381628 0.03316915 -0.08421856 -0.045303
000260 fb a1 42 3e 04 ac 01 bd b6 57 24 bd 20 41 04 be
       0.19007103 -0.031658188 -0.04012271 -0.12915468
000270 d0 ce 8a 3d e1 0a a5 bd 9c 88 13 be c8 12 6e 3e
       0.067777276 -0.080587156 -0.14407581 0.23249352
000280 d5 51 95 3d 8c 81 ed 3d d0 13 1f be c1 5b 45 bc
       0.07290999 0.11596975 -0.15534902 -0.012045802
000290 a0 cd 91 bc 6d ea fc bd f0 43 12 3e de b6 ab 3d
       -0.017798245 -0.12349401 0.14283729 0.083844885
0002a0 8f 65 94 bd 7a 77 08 bd 36 2f a9 bd ad 96 a9 3d
       -0.07245933 -0.033317067 -0.08260958 0.08280692
0002b0 cb 6e 3f 3b 9f 75 c3 bd 15 4e 25 be 22 dc 0f be
       0.0029210325 -0.09543919 -0.16143067 -0.14048818
0002c0 0f de 4e 3e 38 19 6c 3d 9c ca e7 bc 24 0e 98 bd
       0.20201896 0.057641238 -0.028294854 -0.07424572
0002d0 67 ea 40 bd fa 64 33 3d 80 ee b6 bd 72 02 49 3d
       -0.047098543 0.04379747 -0.08932209 0.049074598
0002e0 e4 3f 6b 3b 2b 88 a1 bd 6e 3f 51 bd db 4e b8 bd
       0.0035896236 -0.078873 -0.051085882 -0.089994155
0002f0 81 ca b9 3d e1 8d bc 3d 47 2a da bd 2f f4 79 3c
       0.09071828 0.09206749 -0.10652595 0.015255972
000300 bb a4 d3 3d 94 e3 a9 bb 0e 1f c3 bd 02 75 f6 3c
       0.10334154 -0.0051846 -0.095274076 0.03008509
000310 da 86 1a be 2d 27 b1 bc e9 7a 8f bd a4 8e 07 bb
       -0.15090504 -0.021625126 -0.07005865 -0.0020684386
000320 6f 3a 6a 3d 84 e1 6d bb 5e 8b fa 3c 4a 3c 88 3d
       0.057184633 -0.0036297748 0.030584034 0.06652124
000330 97 4c d7 bd c4 16 ec bb cf 55 06 be d6 d8 69 3d
       -0.10512655 -0.0072048623 -0.13118671 0.057091556
000340 39 e8 1d bc 39 33 95 bb 10 2c 5e bd 21 f9 2d 3e
       -0.009637886 -0.0045532254 -0.05424124 0.16989566
000350 d2 b6 46 3c 8b 96 0e bd 9a fa 1d be 26 2e c9 3c
       0.012128549 -0.034811538 -0.15427628 0.024558138
000360 11 34 5f 3d 5b 0c 0e bd 90 1e c3 3d d2 28 4c 3d
       0.054493014 -0.03467975 0.09527314 0.049843617
000370 ae 2f 0e 3d b7 83 0f be 68 84 53 bd 03 81 10 be
       0.03471344 -0.14015089 -0.051639944 -0.14111714
000380 70 41 11 bd 77 05 d4 bc 14 e0 dd bd 07 d5 38 3d
       -0.035462797 -0.025881512 -0.10833755 0.045125034
000390 86 c1 97 3d 07 39 25 3c 1b 69 73 bd e5 5c b9 3d
       0.074099585 0.010084397 -0.05942641 0.09050921
0003a0 b8 c5 0f bd b4 00 e1 bd c7 a3 fb bc 7f 00 69 bd
       -0.03510067 -0.10986462 -0.030717744 -0.05688524
0003b0 aa 79 dc 3c f7 fe c3 bd 4b 98 5b bc 16 a8 f2 3d
       0.026913483 -0.09570115 -0.013403009 0.11848466
0003c0 84 b1 2f be ef 4e f8 3c b3 04 b4 3d c6 96 9f 3d
       -0.1715756 0.030311076 0.08789959 0.077924296
0003d0 1e 13 15 3e 5d bf 24 3d 76 02 3c be 68 f3 03 3d
       0.14558074 0.04022156 -0.18360314 0.032214552
0003e0 bb 02 60 38 c8 a6 23 3a a8 6a b1 bd 1d 99 0d 3e
       5.3408305e-05 0.0006242809 -0.08662921 0.1382794
0003f0 f1 d5 af 3b 76 f1 27 bd 80 b0 69 3d 8f c9 9c 3c
       0.00536608 -0.04100176 0.05705309 0.01913908

lstm.bias_ih_l1 f4 [512]
000000 8f 17 e9 bd 7a 47 ae bd 29 cc e8 bc 1e c2 21 be
       -0.113814466 -0.08509727 -0.028417664 -0.15796706
000010 1d 64 a8 bc 10 8c 51 be d3 e2 f3 bd a8 6e 50 bd
       -0.02055555 -0.20463586 -0.11908498 -0.05088678
000020 5a e9 c6 bc 5c 9c 4a be 3d b7 70 be 8a 67 3c be
       -0.024281193 -0.19786209 -0.235074 -0.18398872
000030 ac f7 8e bd 2e b5 82 3c 68 5f 52 be f3 38 c1 bd
       -0.069808334 0.015955534 -0.20544207 -0.0943469
000040 44 55 0d be 76 6d c7 bd 92 16 94 bd 32 5e fe bd
       -0.13802058 -0.09737675 -0.072308674 -0.1242031
000050 06 83 18 3d ed 3b c7 bd 3e 87 7e bd 74 dd c4 bd
       0.03723433 -0.09728227 -0.062140696 -0.09612551
000060 63 d9 f9 bb e3 2c 2a be 5b 43 ae bc 1b 4a 89 bc
       -0.0076247915 -0.16618685 -0.021272352 -0.016758969
000070 4a ad f4 bc 90 27 5d bc 7b 9b d9 bd 38 28 a4 bc
       -0.029867787 -0.013498202 -0.10625359 -0.020038709
000080 16 18 3d be 1b e0 0f be 20 53 57 be f3 79 9a bd
       -0.1846622 -0.14050333 -0.21027803 -0.07542791
000090 0f 7f 20 be 0d c2 6f ba 84 9f 34 bd df 2b 60 3d
       -0.15673469 -0.0009146042 -0.04409744 0.05472934
0000a0 04 c0 04 be d1 c5 d0 bd 38 bf e5 bb 01 99 9c bd
       -0.12963873 -0.101939805 -0.0070113204 -0.07646371
0000b0 94 e4 20 3d 26 aa 07 be 9b 6c 05 be 3b 13 84 3d
       0.03928049 -0.132485 -0.13029711 0.064489804
0000c0 ef 7d 1f be 98 69 b6 3d 5a bd 35 bd 06 df 04 be
       -0.15575384 0.08906859 -0.044370033 -0.12975702
0000d0 61 a9 45 be 64 7d 9b bd 19 17 ad 3a 36 10 90 bd
       -0.19302894 -0.07592276 0.0013205736 -0.07034342
0000e0 aa d7 e7 bd dc 36 69 bd 50 47 de 3a f8 60 86 bd
       -0.113204315 -0.056937084 0.0016958509 -0.06561464
0000f0 5e 31 00 be 30 3e fd bc 1b 74 91 bd fe b4 62 be
       -0.12518832 -0.030913442 -0.071022235 -0.22139356
000100 5b e8 1c 3c 31 ba 8c bd 47 32 c6 3b 82 7a 38 be
       0.009576882 -0.06871451 0.006048474 -0.18015483
000110 2b f5 e5 bd 5c 62 97 3c 1f 30 c9 bd 98 73 83 bd
       -0.11228403 0.018479519 -0.098236315 -0.06418532
000120 07 e9 90 bd 55 2f 92 bd 51 c0 1f bb 19 2e e8 bc
       -0.070756964 -0.07137934 -0.0024376104 -0.028342294
000130 43 93 0a be ff ad fa bd c0 78 5b be de b2 80 be
       -0.13532738 -0.12240218 -0.21432781 -0.25136465
000140 cc 1c 77 bd c4 46 62 bd 2f d0 c4 bd e7 62 00 bd
       -0.060330197 -0.05524327 -0.0961002 -0.03134432
000150 e7 0e c2 bd 2b c0 36 be ae 03 37 be 16 25 51 be
       -0.09475499 -0.17846744 -0.17872497 -0.20424303
000160 dd 2e 29 be 3e 23 cc ba f9 6c ec bd 2b 2e b7 bd
       -0.16521783 -0.0015574468 -0.115442224 -0.08944353
000170 47 a2 e9 3d 54 75 2e be 5f be e6 bb 43 7e 04 be
       0.11407905 -0.17036945 -0.007041737 -0.1293879
000180 77 78 69 be bb 0e c8 3d f9 cc c4 bd c0 8d b9 bc
       -0.2279986 0.097684346 -0.09609408 -0.0226506
000190 95 d9 eb 3c e4 2e 4c 3c 08 af 28 be 2b 9e a7 3d
       0.028790275 0.0124623515 -0.16473019 0.08184465
0001a0 d5 24 82 3d 4f 13 0c be dc 8c 7a bd b0 0f 28 be
       0.063546814 -0.1367924 -0.06116949 -0.16412234
0001b0 6c de 2f 3c 59 91 b1 3d 5d 44 96 bd 6f e2 a6 bc
       0.010734182 0.08670301 -0.07337258 -0.020371644
0001c0 f3 e8 0c bd 5d e6 8f bd 9e bd 33 be d9 53 0d be
       -0.034401845 -0.0702636 -0.17552802 -0.13801517
0001d0 06 34 4a be 35 a6 3c be b5 5b cc bd 38 d7 b1 bd
       -0.19746408 -0.18422778 -0.09978429 -0.08683628
0001e0 ed 6b ed bd 1f ad c9 bd 94 8b 76 bd c3 5f 47 bd
       -0.11592851 -0.09847473 -0.060191706 -0.04867531
0001f0 dc ef 62 bd 8d 7f ad bd 67 ac 3f be 60 d5 8d ba
       -0.05540453 -0.08471594 -0.1871811 -0.0010821037
000200 9a d7 b0 3b 43 b4 d9 bd ca 2c 26 bc 2a 4d b9 bd
       0.0053967955 -0.10630085 -0.0101425145 -0.09047921
000210 a6 52 84 bd 26 ae 42 bd 43 e7 63 bd 6d 49 be bd
       -0.064610764 -0.047529362 -0.05564047 -0.092913486
000220 64 7b fc bc b3 b3 55 bd 2e 67 bb bd 75 35 c6 bd
       -0.030820556 -0.052173328 -0.09150539 -0.09678165
000230 19 9d 8d bd 4a 4d 39 3e 5a 8a 14 be 2b 51 11 be
       -0.069147296 0.1809589 -0.14505902 -0.1419112
000240 0c 44 f4 bb 12 92 a5 bd 40 e8 d8 bc ae 55 eb 3c
       -0.007454401 -0.08084501 -0.026477933 0.028727379
000250 af aa 8b 3c 48 62 f9 bb 91 86 0d be fe 73 9d 3d
       0.017049162 -0.007610593 -0.13820864 0.076881394
000260 56 81 76 3d f5 3e 41 3b b3 e5 e2 3c f0 4e 2e bc
       0.060181938 0.0029486988 0.02769742 -0.010638937
000270 d3 bb db 3c b6 eb cc bd ab 58 1e bd 1d 28 61 3b
       0.02682296 -0.10005896 -0.03865878 0.0034356185
000280 c3 8a b2 bd 9c cf 12 3d cb d6 d2 bc 00 64 2f 3d
       -0.08717873 0.035842523 -0.025737187 0.042819977
000290 ae 0a a9 bb 25 50 3e 3d 6c 08 be bc 8c 25 ac 3c
       -0.005158744 0.04646315 -0.023197375 0.021013997
0002a0 19 84 21 be 5c e3 c7 3b e1 ad f4 3b 8e 14 23 3b
       -0.15773048 0.0061001014 0.007467017 0.0024884078
0002b0 f8 ea 01 bd f9 83 38 bd a3 1a b8 3c a5 c1 2a 3e
       -0.031718224 -0.045047734 0.022473639 0.16675432
0002c0 39 e5 56 bd 3b c2 39 3e 5b f9 40 bd 2b 88 e4 bd
       -0.052464698 0.181405 -0.047112804 -0.111587845
0002d0 cf 0b 57 bd 12 30 a0 3d 76 17 4c bd ee aa e9 bd
       -0.052501496 0.07821669 -0.04982706 -0.114095554
0002e0 ab 71 fe 3c aa 14 a7 bd fc 01 08 3d 3d 29 6d bd
       0.03106006 -0.08158238 0.033205017 -0.057900656
0002f0 61 cb 56 bd 42 8e 5c bd 55 f7 b7 bd 49 53 b2 bd
       -0.05244005 -0.053846605 -0.08982722 -0.08707292
000300 16 f4 03 bd 19 79 9e 3c 7e a0 b3 b8 48 1f a1 bc
       -0.0322152 0.019344853 -8.565279e-05 -0.019668236
000310 10 67 fe 3b 98 f4 1f bd ac 8a 95 bd 24 37 e7 bd
       0.007763751 -0.039051622 -0.0730184 -0.11289814
000320 b5 98 a9 3b ef 34 ba 3c 57 eb a4 bd a4 32 98 3c
       0.005175675 0.022730319 -0.080527 0.018578835
000330 f4 2c 9a 3a 09 a7 ad bc f1 7a 99 bd 22 44 6d bd
       0.0011762665 -0.021197813 -0.07494152 -0.057926305
000340 2e fd 15 3e 84 0f 8f bd bf 6d e2 bd 84 6a 2a bc
       0.14647362 -0.06985381 -0.11056089 -0.010401372
000350 4f 66 78 bc cd 52 bd 3c 0c c0 33 be 4e 7c a6 3c
       -0.015161111 0.023110772 -0.17553729 0.020322945
000360 68 e9 4c bc 60 ce 08 3d 83 39 ef bc e0 df de bd
       -0.01250682 0.03339994 -0.029202228 -0.108825445
000370 64 14 12 bd bd fd 0c be 80 86 4b 3b 0a 6c b7 bc
       -0.035663977 -0.13768668 0.003105551 -0.022390384
000380 6d 46 dd bd 2e a8 e1 3b dd 40 62 bd 18 cc 45 bd
       -0.10804448 0.0068865037 -0.05523764 -0.048290342
000390 1d de 41 3d 4b cd 03 bd 6b f9 51 bd 7f 5a 12 3e
       0.047330964 -0.032178205 -0.051263254 0.14292334
0003a0 c1 1f 3d bd 5b f7 f3 bc 4a fc 9f bb 6e 7c 12 bd
       -0.04617286 -0.029781034 -0.00488237 -0.035763197
0003b0 13 92 8f 3d be 56 d7 3c 3c 4c 8f bd 99 ae 1a be
       0.07010283 0.02628648 -0.069969624 -0.15105666
0003c0 92 15 1f 3e bc 5f 7d bd 27 f9 15 be d5 05 08 bd
       0.15535572 -0.061858878 -0.14645825 -0.033208687
0003d0 3b 21 23 bd 19 38 05 bd cf ed a5 3d da 24 0f 3d
       -0.039826613 -0.032524202 0.08101999 0.034947254
0003e0 7e 8b 20 be 58 4c ca bb 2d ec 7d bd 59 88 12 3e
       -0.15678212 -0.0061736517 -0.061992813 0.14309825
0003f0 e2 cc ab bc 83 e4 e7 bd ee 51 10 bd bc 4d ff bc
       -0.02097172 -0.11322882 -0.035234384 -0.031164996
