projectAI/best_model.pth (torch, 870313 bytes, 10 tensors)

lstm.weight_ih_l0 f4 [512, 34]
0	0xb8c0a7e3	-9.186545e-05
1	0xbd7194c0	-0.05897975
2	0x3d46bd40	0.048520327
3	0x3dbb7f67	0.091551594
4	0xbdcb9319	-0.09940166
5	0xbdb60ce9	-0.08889181
6	0x3c4d0787	0.012514002
7	0x3e355275	0.17707236
8	0xbd841f8f	-0.06451332
9	0xbd333570	-0.043752134
10	0xbded5538	-0.1158852
11	0xbe0e580f	-0.13900779
12	0xbe1845bb	-0.1487035
13	0xbde9dd11	-0.11419118
14	0xbc505f74	-0.01271807
15	0xbe1cc12c	-0.15308064
16	0xbe1a5f78	-0.15075481
17	0xbd8ddc85	-0.069268264
18	0xbd83a97c	-0.06428811
19	0xbda5f2b3	-0.08102932
20	0x3d94551b	0.07242795
21	0x3c841986	0.016125452
22	0xbe897c2f	-0.26852557
23	0xbe85d540	-0.2613926
24	0xbde8dab6	-0.11369841
25	0xbd75814a	-0.059937753
26	0x3d700cc6	0.05860593
27	0xbd6467bc	-0.05576299
28	0xbe33ad51	-0.17546584
29	0xbdeac328	-0.11463004
30	0x3e0aaffe	0.13543698
31	0x3dda2637	0.1065182
32	0xbd868387	-0.065680556
33	0x3d736bba	0.059428908
34	0x3e804188	0.25049996
35	0x3d88266b	0.06647953
36	0x3e02bf92	0.12768391
37	0x3e0b9347	0.136304
38	0x3d8281ae	0.06372391
39	0x3d268427	0.040653374
40	0x3d58ff90	0.0529781
41	0x3da6790a	0.08128555
42	0x3e15c3b4	0.14625436
43	0x3e1060e9	0.14099468
44	0xbd808f9f	-0.062773935
45	0xbdebf41d	-0.1152117
46	0x3d9b0baa	0.07570584
47	0xbe0e5a46	-0.13901624
48	0x3ea5ce49	0.32383946
49	0x3eb86ae2	0.36019045
50	0x3e038951	0.12845351
51	0x3e56c12a	0.20972124
52	0x3dc17e87	0.09447961
53	0x3e223e5a	0.15844098
54	0x3ddee226	0.10882978
55	0x3e2747f4	0.16336042
56	0xbdb8a833	-0.090164565
57	0xbbf22b82	-0.0073904404
58	0x3e2aa6df	0.16665219
59	0x3de80322	0.113287225
60	0x3dba039c	0.0908272
61	0xbd5ec94b	-0.054391187
62	0x3da526ce	0.08064042
63	0x3e2699bb	0.16269581
64	0x3d4a4494	0.049381807
65	0x3e26325f	0.16230153
66	0x3bee3116	0.007269035
67	0xbcf541d0	-0.029938608
68	0xbcaeac90	-0.021322519
69	0xbd1c01b7	-0.038087573
70	0x3e41246a	0.18861547
71	0x3d9a06b2	0.07520808
72	0x3debeeb0	0.115201354
73	0x3c641396	0.013920685
74	0xbe8225e0	-0.2541952
75	0xbe77b36e	-0.2418954
76	0xbb64d0da	-0.0034914524
77	0x3dfb63d8	0.12274903
78	0xbdd7d125	-0.10537938
79	0xbe4eda31	-0.20200421
80	0xbdc0be0e	-0.0941125
81	0xbccfa2b1	-0.025346132
82	0xbe1353f7	-0.14387499
83	0xbe650674	-0.22365743
84	0x3e0fe984	0.14053923
85	0x3e21601c	0.15759319
86	0x3d976425	0.07392148
87	0x3d11cac1	0.03559375
88	0x3e1ac9c9	0.15116037
89	0x3dcc9414	0.09989181
90	0x3de89d92	0.11358179
91	0xbccf539a	-0.025308419
92	0x3e7bee30	0.2460258
93	0x3e549967	0.20761643
94	0x3e4b039d	0.19825597
95	0x3e8843e1	0.26614287
96	0x3e4e0c81	0.20121957
97	0x3e28f0f9	0.16498174
98	0x3d5afbae	0.053462677
99	0x3e071802	0.13192752
100	0x3d6fc8c4	0.058541074
101	0xbd217bb5	-0.039424617
102	0xbe485176	-0.19562325
103	0xbd8ae254	-0.0678145
104	0x3d886d52	0.06661476
105	0x3d1e635d	0.03866898
106	0xbed9371c	-0.42424858
107	0xbe9e7a05	-0.3095247
108	0x3e68eacd	0.2274582
109	0x3de103b0	0.109870315
110	0xbf185d39	-0.59517246
111	0xbe94ebc2	-0.2908612
112	0xbdf46e16	-0.1193506
113	0xbc6e7658	-0.014554583
114	0xbe054bb0	-0.13017154
115	0xbe37d331	-0.17951657
116	0xbce1761e	-0.027522143
117	0x3daefe95	0.085446514
118	0xbe354305	-0.17701347
119	0xbe4ccac6	-0.19999227
120	0xbd0861d4	-0.03329642
121	0x3e2cc0ac	0.16870373
122	0xbea33071	-0.31872895
123	0xbd98c066	-0.07458572
124	0x3d8755c2	0.06608154
125	0x3e644b03	0.2229424
126	0xbaf388bf	-0.0018580182
127	0x3d2bed0b	0.04197411
128	0xbc2095fe	-0.009801386
129	0xbd5188cc	-0.05115585
130	0x3d6cfca2	0.057858117
131	0xbd1a0e79	-0.03761146
132	0x3dd42dcf	0.103603
133	0x3e497e6f	0.19677137
134	0x3d80c4bd	0.06287525
135	0x3e12cb69	0.14335407
136	0x3d6e8d0e	0.05823999
137	0x3e10d5d0	0.14144063
138	0x3c744208	0.014908321
139	0x3dff42b0	0.124638915
140	0x3d8de5ab	0.06928571
141	0x3d2d049a	0.042240717
142	0xbdbdd91f	-0.09269928
143	0xbe3a77db	-0.18209784
144	0x3dc9f506	0.09861188
145	0x3da8fb89	0.082511015
146	0x3dfedf80	0.12444973
147	0x3c15bdc9	0.009139487
148	0x3d11dc8e	0.035610728
149	0xbd73a6fc	-0.05948542
150	0x3e7071fd	0.23480983
151	0x3e10c01c	0.14135784
152	0x3e251e3a	0.16124812
153	0x3e63647e	0.22206303
154	0x3e2e099f	0.16995858
155	0xbd93ca1d	-0.072162844
156	0x3db04f40	0.08608866
157	0x3da37541	0.07981349
158	0x3dae9ad1	0.08525623
159	0x3e6210fa	0.22076789
160	0x3d13f05b	0.036117893
161	0x3dbdc5ee	0.09266268
162	0x3e2be4f7	0.16786562
163	0x3e200112	0.15625408
164	0x3d9f19e4	0.0776861
165	0x3e27266d	0.16323252
166	0x3d355a4a	0.04427556
167	0x3de765be	0.11298703
168	0x3d527a57	0.051386204
169	0x3d81e6fb	0.06342884
170	0xbb172fa5	-0.002306917
171	0xbd534170	-0.051576078
172	0x3d56d196	0.05244597
173	0xbe06af1f	-0.13152741
174	0xbd909d84	-0.07061294
175	0xbd559889	-0.052147422
176	0xbce14a6e	-0.027501311
177	0xbcca7b3b	-0.024716964
178	0xbd3d90d3	-0.046280693
179	0xbe159d16	-0.14610705
180	0xbe811836	-0.25213784
181	0xbe8d3e08	-0.2758639
182	0xbe0bfd0c	-0.13670748
183	0xbe800496	-0.250035
184	0x3cf0602c	0.029342733
185	0x3de0170a	0.10941894
186	0x3c8c6016	0.017135661
187	0x3d7e209c	0.062042817
188	0xbda994ee	-0.08280359
189	0xbd2a8b2f	-0.041636642
190	0x3d4bde6d	0.04977267
191	0x3c813467	0.015772058
192	0xbd624c2a	-0.055248417
193	0x3d409a6f	0.04702228
194	0xbe099baf	-0.13438295
195	0xbe3bfe06	-0.18358621
196	0xbd8b4662	-0.06800534
197	0xbe1bb9fb	-0.15207665
198	0xbb1d21bb	-0.0023976404
199	0xbdec9534	-0.11551896
200	0xbd12516e	-0.03572219
201	0x3d0ae682	0.033911236
202	0xbe18d770	-0.14925933
203	0xbdd2a967	-0.10286217
204	0x3bf99d08	0.0076175965
205	0x3c9ecab7	0.019383771
206	0x3d94f907	0.07274061
207	0x3db73e54	0.08947435
208	0xbd3cbd2f	-0.046078857
209	0x3d888692	0.06666292
210	0x3d15836e	0.036502294
211	0x3e170dbc	0.14751333
212	0x3c7ced3f	0.015437423
213	0xbe00ac05	-0.1256562
214	0x3dd18956	0.10231273
215	0x3c65f60c	0.014035713
216	0x3e36c744	0.17849451
217	0x3da5c992	0.08095087
218	0x3d90ade2	0.070644155
219	0x3da87b56	0.082266495
220	0xbd87d6f1	-0.06632794
221	0x3dc19a7d	0.094532944
222	0xbdf9ad70	-0.12191284
223	0x3e1a4e18	0.15068853
224	0xbdabbb31	-0.08385313
225	0x3de79b8c	0.11308965
226	0xbd891777	-0.06693929
227	0x3dae3f03	0.08508112
228	0xbc34ef6e	-0.011043413
229	0xbde273fd	-0.11057279
230	0x3d078779	0.03308818
231	0x3df81fe0	0.12115455
232	0x3e16e1d3	0.14734583
233	0x3e2cdac5	0.16880329
234	0x3e152331	0.14564206
235	0x3daaaf80	0.08334255
236	0x3e19bf7f	0.15014456
237	0x3d17981d	0.0370103
238	0xbd994041	-0.074829586
239	0x3c9c2d48	0.01906456
240	0xbe1857d9	-0.14877261
241	0x3c2e7bcb	0.010649632
242	0xbe3d5d9a	-0.18492737
243	0xbdcb670b	-0.09931763
244	0xbe66179b	-0.22469942
245	0xbe72e2a0	-0.23719263
246	0xbe6455d3	-0.22298364
247	0xbe0c8efb	-0.13726418
248	0xbe259643	-0.16170602
249	0xbd8c3085	-0.06845192
250	0xbe830e33	-0.2559677
251	0xbd6365a5	-0.055516858
252	0xbe166c51	-0.14689757
253	0xbdda24e6	-0.10651569
254	0xbd8c3a3f	-0.06847047
255	0x3dd905bf	0.10596799

lstm.weight_hh_l0 f4 [512, 128]
0	0x3e151c05	0.1456147
1	0x3dc518ef	0.09623896
2	0x3e31b75f	0.17355107
3	0xbe96f3de	-0.2948293
4	0x3e8f617e	0.28004068
5	0x3dc38919	0.09547634
6	0x3e14bedb	0.1452593
7	0xbe92bf76	-0.28661698
8	0x3e09f1d8	0.13471162
9	0xbe13150f	-0.14363502
10	0x3cfa24eb	0.030535182
11	0x3eb15f3a	0.34642965
12	0xbdda6854	-0.1066443
13	0x3d32c9da	0.043649532
14	0xbed65471	-0.418613
15	0xbf31b124	-0.6941092
16	0xbe869320	-0.26284122
17	0x3ee21165	0.44153896
18	0x3c6de3c6	0.014519637
19	0xbe7c8c34	-0.24662858
20	0x3e87cc22	0.26522928
21	0x3eb734b6	0.35782403
22	0x3eca47fc	0.39508045
23	0x3d0508b9	0.03247902
24	0x3e154aa2	0.14579251
25	0x3ec55133	0.38538513
26	0x3e7d954a	0.2476398
27	0xbdf5d94c	-0.12004337
28	0xbf13deae	-0.5776166
29	0x3e97c56b	0.29642805
30	0xbe14f79f	-0.14547585
31	0x3eb7ae8f	0.35875365
32	0x3e8a19bb	0.26972756
33	0x3d985a42	0.0743909
34	0xbe47c189	-0.19507422
35	0xbdb4a236	-0.08820002
36	0x3e957e55	0.29197946
37	0xbd0224c2	-0.031773336
38	0x3c82dd99	0.015974807
39	0x3ba86852	0.005139389
40	0x3f0b7d73	0.54488295
41	0x3f1dc726	0.61632
42	0x3ee16004	0.44018567
43	0x3e907b72	0.2821918
44	0x3edeabce	0.43490452
45	0xbe39c156	-0.18140158
46	0xbd1bc985	-0.03803398
47	0xbe8abf26	-0.2709896
48	0x3ee4117d	0.44544592
49	0x3e3588ed	0.17728014
50	0xbdd92e6a	-0.10604556
51	0xbe77354f	-0.2414143
52	0x3df1e40a	0.11811073
53	0x3eba660b	0.36405978
54	0x3e14f9e1	0.14548446
55	0xbdc87389	-0.097876616
56	0xbe82df85	-0.25561157
57	0x3e465d89	0.19371618
58	0x3d1ac2ed	0.037783552
59	0x3e2e6424	0.17030388
60	0xbe4de7b0	-0.20107913
61	0xbda1337b	-0.07871147
62	0x3db8991b	0.090135776
63	0x3e7620b2	0.2403591
64	0x3ef7a3d9	0.48367193
65	0xbd9381ff	-0.07202529
66	0xbd8acc09	-0.06777198
67	0x3e165e01	0.14684297
68	0x3dcb34aa	0.09922154
69	0x3ef4f3d7	0.47842285
70	0xbea8ebb0	-0.32992315
71	0xbcd372b4	-0.02581153
72	0xbe8cb566	-0.27482146
73	0xbe10a674	-0.14125997
74	0x3e839d9d	0.25706187
75	0x3ed690e3	0.41907415
76	0xbed26057	-0.41089126
77	0x3d1f54c2	0.03889919
78	0x3ea67384	0.32510006
79	0xbd09ebef	-0.03367227
80	0x3da30eef	0.07961833
81	0x3e181447	0.14851485
82	0xbf3b6c4c	-0.7321212
83	0xbe00dc56	-0.12584051
84	0xbed8ccd4	-0.4234377
85	0x3e9aa0dc	0.3020085
86	0x3e39cee0	0.18145323
87	0xbe1ddd70	-0.15416503
88	0x3e2fa5e8	0.17153132
89	0x3e6f97cf	0.23397754
90	0xbe50dd1d	-0.20396848
91	0x3d134f28	0.03596416
92	0xbe9d033c	-0.3066653
93	0xbea07aed	-0.31343785
94	0xbeab4ee2	-0.3345862
95	0xbe425daa	-0.18981043
96	0x3e2dc26d	0.16968699
97	0x3e72a5c8	0.23696053
98	0xbe81b7ab	-0.2533544
99	0x3e90021c	0.2812661
100	0x3e043d16	0.12913927
101	0x3ec5da40	0.38643074
102	0x3db13e58	0.08654469
103	0x3d0012ca	0.03126792
104	0x3e1f786e	0.15573284
105	0xbeaf648f	-0.34256408
106	0xbdedb93e	-0.11607598
107	0xbc690761	-0.014222951
108	0xbc1334f1	-0.00898479
109	0xbe93eafe	-0.28890222
110	0x3e1d2559	0.15346278
111	0xbdea2d22	-0.1143439
112	0xbe76306a	-0.24041906
113	0xbe8f11db	-0.2794331
114	0xbdeb565e	-0.114910826
115	0xbee63600	-0.44963074
116	0xbe68e61a	-0.22744027
117	0xbe06798a	-0.13132301
118	0xbee84823	-0.45367536
119	0xbcd5a8ec	-0.026081525
120	0x3e1e704d	0.15472527
121	0xbeee4d8c	-0.4654354
122	0xbe278b47	-0.16361724
123	0xbe1d26f9	-0.15346898
124	0x3e6ca3da	0.2310938
125	0xbe80ce7a	-0.2515753
126	0x3e228b0f	0.15873359
127	0x3cf7d43d	0.03025257
128	0xbd553f2a	-0.05206219
129	0x3da856a2	0.08219649
130	0xbeafbbbc	-0.34322917
131	0x3f085d5e	0.5326747
132	0x3e613df1	0.21996285
133	0x3e2f2d06	0.17107019
134	0xbe965d6c	-0.2936815
135	0xbca167eb	-0.019702872
136	0x3d36aa04	0.044595733
137	0xbdde5315	-0.108556904
138	0xbd2d23b6	-0.042270385
139	0xbf094388	-0.5361867
140	0x3df1ee11	0.11812986
141	0xbd0d5abd	-0.034510363
142	0xbd7b81dd	-0.061403144
143	0x3ec62686	0.38701266
144	0x3e02a4b8	0.12758148
145	0xbec93007	-0.39294454
146	0xbede019d	-0.43360606
147	0xbe8fdf8c	-0.2810024
148	0x3e420839	0.18948449
149	0x3e92b613	0.28654537
150	0x3ec81458	0.3907802
151	0xbcbdeada	-0.023183275
152	0xbe89d413	-0.26919612
153	0x3e678f7b	0.22613327
154	0x3eb5da61	0.35518172
155	0xbb71f1c4	-0.0036917785
156	0x3e229d2b	0.15880267
157	0x3dd9c69f	0.10633587
158	0xbda78555	-0.08179728
159	0x3be0768b	0.006850069
160	0x3e9c7112	0.30555016
161	0xbe14f758	-0.14547479
162	0x3dad99d8	0.08476609
163	0x3f012c13	0.50457877
164	0x3ca3dbba	0.020002235
165	0xbd72e367	-0.0592989
166	0x3ddf58c1	0.109056
167	0x3edc924d	0.4308037
168	0x3e1f4ad3	0.15555887
169	0x3df17fb2	0.11791934
170	0xbe629aee	-0.22129413
171	0x3d776708	0.060400993
172	0x3e12b8c5	0.14328296
173	0x3ea45086	0.32092685
174	0xbd935722	-0.07194354
175	0xbedc44df	-0.43021294
176	0x3d34bfd7	0.044128265
177	0x3db0ce07	0.086330466
178	0xbe7c193f	-0.24619006
179	0xbec9550f	-0.39322707
180	0x3dbc86c0	0.09205389
181	0x3eaacd2d	0.33359662
182	0x3cd1aad1	0.025594147
183	0x3d732b57	0.059367504
184	0xbe69d8c3	-0.22836594
185	0x3eb98646	0.36235255
186	0x3ccdc5d2	0.025118742
187	0x3dbe1a1c	0.09282324
188	0xbd37fcbe	-0.044918768
189	0x3dfa31c0	0.1221652
190	0x3f1dcf53	0.61644477
191	0x3e1f529d	0.15558858
192	0xbec07652	-0.3759027
193	0x3d7fdd4e	0.062466912
194	0xbe3360c1	-0.17517377
195	0x3e306d8a	0.17229286
196	0x3d8c0b9b	0.06838151
197	0xbe845952	-0.25849396
198	0xbf099e53	-0.5375721
199	0x3eae79ce	0.34077305
200	0xbd99b9a5	-0.07506112
201	0x3d539e59	0.051664684
202	0xbeabfc5e	-0.33590978
203	0xbed49639	-0.4152086
204	0xbd74e206	-0.059785865
205	0xbec340f5	-0.38135496
206	0xbe1da647	-0.15395461
207	0x3e47c361	0.19508125
208	0x3e52c5bc	0.20583242
209	0xbeee599a	-0.46552736
210	0x3e8060c1	0.25073817
211	0x3d43913a	0.04774592
212	0xbe211b2c	-0.15733021
213	0x3e95c2f5	0.29250303
214	0xbcc44210	-0.023957282
215	0xbe9d6e53	-0.30748233
216	0x3eaf48cc	0.34235227
217	0xbd8191cf	-0.06326639
218	0xbf0998f1	-0.53748995
219	0x3e0ac2b6	0.13550839
220	0x3d2ff1cc	0.042955205
221	0xbe4702ef	-0.19434713
222	0xbeab2334	-0.33425295
223	0x3ea408d6	0.3203799
224	0xbe2d6f83	-0.1693707
225	0xbea039cd	-0.31294098
226	0x3dd75fc7	0.10516315
227	0x3ee7b522	0.4525538
228	0xbec3c445	-0.3823568
229	0x3d5a997d	0.053369034
230	0x3efd134c	0.49428785
231	0x3ea702cb	0.32619318
232	0x3dec6a16	0.11543672
233	0x3d0a25bc	0.033727393
234	0x3e5cd5bd	0.2156591
235	0xbe9f9fcd	-0.31176606
236	0x3e17117a	0.1475276
237	0xbe9a54da	-0.30142862
238	0x3cd461a1	0.02592546
239	0xbe21ab67	-0.15788041
240	0x3ed5ca1b	0.41755757
241	0x3d663afa	0.05620859
242	0xbe8f86bf	-0.2803249
243	0xbc9aec09	-0.018911378
244	0xbec0a1bc	-0.37623394
245	0xbe0b0559	-0.13576259
246	0xbe75ef21	-0.24017002
247	0xbcbc0312	-0.022950683
248	0x3dd22b1e	0.1026213
249	0xbdee648b	-0.11640271
250	0x3e99428c	0.29933584
251	0x3e4099fa	0.18808737
252	0xbd1fa5ec	-0.038976595
253	0x3e18786d	0.14889689
254	0x3d919b22	0.07109667
255	0x3d7bdaa0	0.061487794

lstm.bias_ih_l0 f4 [512]
0	0x3dd6fcbd	0.10497425
1	0xbc907f5c	-0.017638855
2	0x3e65f4a3	0.22456603
3	0x3de19925	0.11015538
4	0x3e60a1b4	0.21936685
5	0xbd38ac08	-0.045085937
6	0xbd818eb7	-0.06326049
7	0xbd7c7dd7	-0.061643448
8	0x3e3fa8be	0.18716714
9	0xbdfd49b2	-0.12367572
10	0x3ef126c7	0.47099897
11	0xbf133b3b	-0.57512254
12	0x3ee349d3	0.4439226
13	0xbddf8aa2	-0.10915114
14	0x3e460311	0.19337107
15	0x3e67b51c	0.22627681
16	0x3e2b09dd	0.16702981
17	0xbd7d0195	-0.061769087
18	0x3f084239	0.5322605
19	0x3f088c7c	0.5333936
20	0x3ebf9019	0.37414625
21	0x3ea3ced9	0.3199375
22	0xbd9779a5	-0.07396249
23	0xbcb53db6	-0.022124153
24	0x3d892c60	0.06697917
25	0x3cc91334	0.02454529
26	0x3ee121df	0.43971154
27	0xbcf43d37	-0.029814346
28	0x3d2d093c	0.042245135
29	0x3e06a368	0.13148272
30	0x3d640f24	0.0556785
31	0xbdd75842	-0.10514881
32	0x3dbcaafa	0.09212299
33	0x3da0bb08	0.078481734
34	0xbe99632e	-0.2995848
35	0xbe2432cd	-0.16035004
36	0x3e048634	0.1294182
37	0x3d1a0c45	0.037609357
38	0xbe180fba	-0.14849749
39	0x3cd80c97	0.02637319
40	0x3e1110e0	0.14166594
41	0xbddb8fa2	-0.10720755
42	0x3ec549ce	0.3853287
43	0x3d583849	0.052788053
44	0x3d9caaf8	0.07649797
45	0xbd0bebb0	-0.034160316
46	0x3e0623be	0.13099572
47	0x3d72109e	0.05909788
48	0xbe047625	-0.12935694
49	0x3e14068c	0.14455622
50	0xbc48c21b	-0.01225331
51	0xbe384779	-0.17996015
52	0x3f7c1d58	0.98482275
53	0xbd663981	-0.056207184
54	0x3be289d5	0.0069134035
55	0xbcd8206f	-0.026382653
56	0x3e02f21f	0.12787674
57	0x3dda830c	0.106695265
58	0x3e81fff6	0.25390595
59	0x3e5677df	0.20944165
60	0x3e8a46e6	0.27007216
61	0x3ed4e12a	0.41578037
62	0xbe138654	-0.14406711
63	0xbd8dab99	-0.06917495
64	0xbc9e172a	-0.019298155
65	0xbcf6a7a5	-0.030109236
66	0x3e3de9be	0.18546197
67	0xbd93081a	-0.071792796
68	0x3cc973b5	0.024591306
69	0xbe4c55ec	-0.19954652
70	0x3e65965c	0.22420639
71	0x3f60317a	0.87575495
72	0xbdbfda75	-0.09367839
73	0x3e662f2b	0.2247893
74	0x3dc1bdaa	0.09460004
75	0x3e0f741c	0.14009136
76	0xbdf40dc8	-0.11916691
77	0xbd19f749	-0.037589345
78	0xbe2ba2fe	-0.16761395
79	0xbc647cff	-0.013945817
80	0xbe990a29	-0.29890564
81	0xbe21f6ba	-0.15816775
82	0x3e6bb78b	0.23019235
83	0x3e988b36	0.2979371
84	0xbc1e8ad4	-0.009676654
85	0xbe1430b8	-0.1447171
86	0x3e8f17bf	0.27947804
87	0x3dcf0ed2	0.101102486
88	0xbd7fa96f	-0.062417444
89	0xbe9c23eb	-0.30496153
90	0xbe8d4de6	-0.27598494
91	0x3db7ace5	0.08968524
92	0x3d91e95d	0.07124589
93	0x3e2d0014	0.16894561
94	0xbd4f33ed	-0.05058663
95	0x3e24dc60	0.16099691
96	0xbdee4169	-0.1163357
97	0x3f1b38fe	0.6063384
98	0x3d277aa3	0.04088844
99	0x3dce35a4	0.10068825
100	0x3f3a952a	0.72883856
101	0x3ec5291b	0.38507923
102	0xbd5a1b70	-0.053248823
103	0x3e8379b5	0.25678793
104	0x3d4a8080	0.049438953
105	0x3e00c348	0.12574494
106	0x3ea04735	0.31304327
107	0x3de9f012	0.11422743
108	0xbe354d3b	-0.17705242
109	0x3e8ca766	0.27471465
110	0x3d23d362	0.039996512
111	0x3d8f3800	0.06993103
112	0x3e48e320	0.19617891
113	0xbe6d2a2f	-0.23160623
114	0x3e8cc03b	0.2749041
115	0x3e421de8	0.18956721
116	0xbe269870	-0.16269088
117	0xbe7b2825	-0.24527033
118	0x3e7a1f8d	0.24426098
119	0xbde941ca	-0.113895014
120	0x3e3e72a7	0.18598424
121	0x3eeb450f	0.45951125
122	0x3d4791b9	0.048722956
123	0xbe9f0538	-0.3105867
124	0x3dccec2e	0.10005985
125	0xbe8781cf	-0.26466224
126	0xbd5fd521	-0.054646615
127	0xbd241486	-0.040058635
128	0x3d1bcbe8	0.038036257
129	0xbdd3cb58	-0.10341519
130	0x3ce9e8ab	0.028553328
131	0xbe3ce523	-0.18446784
132	0xbe954c9e	-0.29160017
133	0x3d8f4577	0.06995671
134	0xbd121d46	-0.03567245
135	0xbc3ee50a	-0.011651287
136	0x3cca724f	0.02471271
137	0xbdb5e77b	-0.08882042
138	0x3e07df5f	0.13268803
139	0xbde9d97c	-0.11418435
140	0xbe8d23a9	-0.2756627
141	0xbe3ebf36	-0.18627629
142	0x3dc29c1e	0.09502433
143	0xbd04ddb4	-0.032437995
144	0xbefe6246	-0.49684352
145	0xbed71293	-0.42006359
146	0x3e027a3d	0.12741943
147	0xbc532676	-0.012887588
148	0xbddf33e6	-0.10898571
149	0x3d95c5ff	0.073131554
150	0x3e0f3848	0.13986313
151	0x3df5f332	0.120092764
152	0xbe23c328	-0.15992415
153	0x3e23e3bb	0.16004841
154	0xbeb6d4ac	-0.3570913
155	0xbd9978a0	-0.074937105
156	0x3eb9f440	0.3631916
157	0x3e5d285d	0.21597429
158	0xbca9743d	-0.02068531
159	0xbdde4c35	-0.10854379
160	0x3e6a3fe1	0.2287593
161	0xbce83f1c	-0.028350405
162	0x3de00d50	0.10940039
163	0xbd210c24	-0.03931822
164	0x3ea3f96e	0.32026237
165	0xbe359ffa	-0.17736807
166	0x3eace4d7	0.3376834
167	0x3e19bb25	0.15012796
168	0xbe208a99	-0.15677871
169	0x3df785ca	0.12086065
170	0x3cda9bed	0.02668568
171	0xbe1f74f3	-0.15571956
172	0xbcec5fb8	-0.028854236
173	0x3eab37e0	0.33441067
174	0x3e6d4230	0.2316978
175	0xbe2c3d69	-0.16820301
176	0x3ea4079d	0.32037058
177	0xbe8c5fa3	-0.27416715
178	0x3ec7b9f2	0.39009053
179	0xbd989d65	-0.074518956
180	0xbe5d9ea2	-0.21642545
181	0x3df6e12f	0.12054669
182	0xbe681bbc	-0.2266683
183	0xbe500481	-0.20314218
184	0x3defad23	0.11702945
185	0xbcab9b31	-0.020948024
186	0xbe318067	-0.17334138
187	0x3b928819	0.0044717905
188	0x3d07f980	0.033196926
189	0xbb890d43	-0.004182489
190	0x3e0763fa	0.13221732
191	0x3e99f9d1	0.30073407
192	0x3e8dcab0	0.276937
193	0xbdedd141	-0.11612178
194	0x3e71d885	0.23617752
195	0x3eb229ff	0.34797665
196	0xbe32117c	-0.17389482
197	0x3e1fd847	0.15609847
198	0xbe29bcfc	-0.16575998
199	0x3d68b977	0.056817498
200	0xbea824f3	-0.3284069
201	0x3d625443	0.05525614
202	0x3bfd629e	0.0077327034
203	0x3e59de02	0.21276096
204	0x3cebce16	0.028784793
205	0x3e48b946	0.19601926
206	0xbe20c0e6	-0.15698585
207	0x3e749d9c	0.23888248
208	0xbe084bcf	-0.13310169
209	0xbe8729d6	-0.26399106
210	0x3e326347	0.17420684
211	0x3c5ee633	0.013604688
212	0x3e4d35af	0.2004001
213	0x3e88c146	0.26709956
214	0xbe3a0a18	-0.18167913
215	0xbe0a294e	-0.13492319
216	0xbe072e50	-0.1320126
217	0xbe53b352	-0.20673874
218	0xbd964fbd	-0.073394276
219	0x3e49a8b0	0.19693255
220	0x3d66388d	0.056206275
221	0xbdf73e45	-0.12072424
222	0x3e83583e	0.2565326
223	0xbd95fbd8	-0.07323426
224	0x3e307c09	0.17234816
225	0x3cac0b13	0.021001374
226	0x3e6cdc3e	0.2313089
227	0x3e6a62f6	0.22889313
228	0xbe23fc89	-0.16014303
229	0xbd2545da	-0.04034982
230	0x3e25084a	0.16116443
231	0x3dc01d09	0.09380538
232	0x3ea77891	0.32709172
233	0x3e0c3c98	0.1369499
234	0xbd103d9d	-0.03521501
235	0x3c43bad2	0.011946397
236	0xbe6884d9	-0.22706927
237	0x3d0d1758	0.03444609
238	0xbe898c0c	-0.2686466
239	0xbe414b20	-0.18876314
240	0x3d820372	0.063483134
241	0x3e99f588	0.30070138
242	0xbd243c65	-0.04009666
243	0xbdc4beac	-0.0960668
244	0x3c95f5c6	0.01830567
245	0xbe1b74a1	-0.15181209
246	0x3e0a96e4	0.13534123
247	0x3ec221cb	0.37916407
248	0x3e48d59f	0.1961274
249	0x3e449f32	0.19201353
250	0x3e47aac7	0.1949874
251	0xbe2dc648	-0.1697017
252	0xbe8644aa	-0.26224262
253	0xbc008d53	-0.007846194
254	0x3ea6f422	0.32608134
255	0x3e9eba2c	0.31001413

lstm.bias_hh_l0 f4 [512]
0	0x3d90c167	0.070681386
1	0xbc5328be	-0.012888132
2	0x3e150993	0.14554434
3	0x3b06a372	0.0020544198
4	0x3e32af05	0.17449577
5	0x3c7c4d58	0.0153993
6	0xbdfb37e2	-0.12266518
7	0xbda8dfaf	-0.08245789
8	0x3d3c2564	0.045934096
9	0xbdbfdf05	-0.093687095
10	0x3ee9b181	0.45643237
11	0xbf09fa64	-0.5389769
12	0x3ec08a89	0.37605694
13	0xbe317c80	-0.17332649
14	0x3db11555	0.08646647
15	0x3e71e148	0.23621094
16	0x3ded62e3	0.11591127
17	0xbd6f4eaa	-0.05842463
18	0x3ee0185a	0.4376858
19	0x3ef75415	0.48306337
20	0x3eae255e	0.34012884
21	0x3e7246d2	0.23659828
22	0xbdc68122	-0.09692599
23	0xbd7db645	-0.061941404
24	0x3e59a7f0	0.2125547
25	0xbdbf067b	-0.09327408
26	0x3ee38bf6	0.4444272
27	0x3cc9f127	0.024651123
28	0x3cee96ce	0.029124644
29	0x3d75484c	0.0598834
30	0x3e02c454	0.12770206
31	0xbe10da8f	-0.14145873
32	0x3d8a63e9	0.067573376
33	0x3d62ee2f	0.05540293
34	0xbe76deba	-0.24108401
35	0xbdc76283	-0.097355865
36	0x3e3a9745	0.18221767
37	0xbd1a983b	-0.037742835
38	0xbd22e746	-0.03977134
39	0x3d31026a	0.043215193
40	0x3d989c04	0.074516326
41	0xbe08458c	-0.1330778
42	0x3ea79226	0.3272869
43	0x3dfa08aa	0.12208684
44	0x3da7ee3a	0.08199735
45	0xbce94a9f	-0.028477965
46	0x3e11b638	0.14229667
47	0x3df5cff4	0.120025545
48	0xbcfd91c3	-0.030953294
49	0x3e7a270a	0.24428955
50	0xbdee3af8	-0.11632341
51	0xbdc22dcc	-0.09481391
52	0x3f7be359	0.9839378
53	0xbe1c24f8	-0.15248477
54	0x3d2cb7cd	0.042167474
55	0x3ddd2a9f	0.10799145
56	0x3d078a14	0.033090666
57	0x3e06d473	0.1316698
58	0x3e5330d7	0.206241
59	0x3e9ceb03	0.3064805
60	0x3eb403d9	0.35159186
61	0x3eaaaaec	0.33333528
62	0xbdcc7449	-0.09983117
63	0xbd961472	-0.073281184
64	0xbd811f7b	-0.063048325
65	0xbe0616ec	-0.13094682
66	0x3da8dece	0.082456216
67	0xbe183e27	-0.14867459
68	0x3da9a148	0.08282715
69	0xbe8128bc	-0.2522639
70	0x3e8a54e8	0.27017903
71	0x3f61cf30	0.8820677
72	0xbe3f3034	-0.18670732
73	0x3eb87775	0.36028638
74	0x3cc01806	0.023448955
75	0x3d4a043e	0.049320452
76	0xbdb16ecf	-0.08663713
77	0xbdbac4b0	-0.091195464
78	0xbd1269f6	-0.035745583
79	0xbe04aca5	-0.12956484
80	0xbe8c4202	-0.2739411
81	0xbe38aad1	-0.18033911
82	0x3e2a366c	0.16622323
83	0x3ece86ec	0.40337312
84	0x3d58ea48	0.052957803
85	0xbd8c2481	-0.068429
86	0x3e8b2288	0.27174783
87	0x3d15fa16	0.036615454
88	0x3dab6ecb	0.083707415
89	0xbe74008f	-0.23828338
90	0xbe4964e2	-0.1966739
91	0x3d222092	0.039581843
92	0xbb56f102	-0.003279746
93	0x3e43f4e2	0.19136384
94	0xbd3f3b36	-0.046687327
95	0x3c32ce06	0.010913378
96	0xbd9f2470	-0.07770622
97	0x3f148c83	0.58026904
98	0x3dbef50d	0.093240835
99	0x3e4b3928	0.19846022
100	0x3f350ac8	0.70719576
101	0x3edff5dd	0.43742266
102	0xbd8c5eb1	-0.068539985
103	0x3e7718b1	0.24130513
104	0x3d9ec5a3	0.0775254
105	0x3e758fbd	0.23980613
106	0x3e5724ef	0.21010183
107	0x3d582370	0.05276817
108	0xbe3823d8	-0.17982423
109	0x3e4a4dd7	0.19756256
110	0x3d4b5478	0.049641103
111	0x3bfa652e	0.007641456
112	0x3e804441	0.25052074
113	0xbd7c5d71	-0.06161255
114	0x3eb89962	0.36054522
115	0x3e1b4cf6	0.15166077
116	0xbe4b4514	-0.1985057
117	0xbe0a74ac	-0.1352107
118	0x3e798815	0.24368317
119	0xbdb983fe	-0.09058379
120	0x3e2dc213	0.16968565
121	0x3f059b57	0.52190155
122	0xbdc7cfc0	-0.09756422
123	0xbe8594d4	-0.2609011
124	0x39f65633	0.00046985
125	0xbdfa86d9	-0.122327514
126	0xbe43203c	-0.19055265
127	0x3d669d1f	0.056302186
128	0x3dcefe1c	0.10107061
129	0xbc282683	-0.010263088
130	0x3de14db7	0.11001151
131	0xbdc7c6fe	-0.097547516
132	0xbe81990c	-0.25312078
133	0x3e0cda85	0.13755234
134	0x3bc17a33	0.00590446
135	0xbdb23784	-0.08701995
136	0xbde79c92	-0.1130916
137	0xbd9d8664	-0.076916486
138	0x3e3a212a	0.18176714
139	0xbd984133	-0.07434311
140	0xbe7fd3af	-0.24983095
141	0xbe3e6865	-0.18594511
142	0x3c2d670a	0.010583648
143	0x3ba45c7d	0.0050159083
144	0xbef52f26	-0.47887534
145	0xbebf69f7	-0.37385532
146	0x3d990a49	0.07472665
147	0xbd04443c	-0.032291636
148	0x3c959ccf	0.018263249
149	0x3cc5e7c0	0.024158359
150	0x3e463f55	0.19360097
151	0x3e752c2a	0.23942629
152	0xbe2b2072	-0.16711596
153	0x3e884f52	0.26623017
154	0xbea827f7	-0.3284299
155	0x3d966ba2	0.07344748
156	0x3eaa9110	0.333138
157	0x3d662dee	0.056196146
158	0xbd995bd1	-0.07488216
159	0xbd436350	-0.047702134
160	0x3e0764bd	0.13222022
161	0x3c92cf99	0.017921256
162	0x3e071aa8	0.13193762
163	0x3ca8d923	0.020611351
164	0x3ed20151	0.4101663
165	0xbe203e60	-0.15648794
166	0x3ea91543	0.33024034
167	0x3dd3bca7	0.10338717
168	0xbe22dc00	-0.15904236
169	0x3e822c07	0.25424215
170	0x3cec3e99	0.028838443
171	0xbded219d	-0.11578677
172	0x3bb247bb	0.00544068
173	0x3e9548ac	0.29157007
174	0x3e163b08	0.14670956
175	0xbdd8c962	-0.10585286
176	0x3eb28d87	0.34873602
177	0xbea712fa	-0.32631665
178	0x3ed29570	0.41129637
179	0xbc1639d8	-0.009169064
180	0xbe42cb53	-0.19022875
181	0x3e2e73b7	0.17036329
182	0xbe72c598	-0.23708189
183	0xbea5217c	-0.3225211
184	0x3dd14a86	0.10219292
185	0xbdaf7f81	-0.08569241
186	0xbda47ac3	-0.080312274
187	0xbdd9c30e	-0.10632907
188	0xbcd647c1	-0.026157262
189	0x3e135e25	0.14391382
190	0x3df2b354	0.118506104
191	0x3e8ffe66	0.28123778
192	0x3e7cf046	0.24701032
193	0xbda247b3	-0.07923832
194	0x3e23c8e8	0.15994608
195	0x3e8234aa	0.25430804
196	0xbe23739d	-0.15962072
197	0x3e2a7ac8	0.166484
198	0xbda14942	-0.07875301
199	0x3dc86d46	0.09786467
200	0xbe7cdbf3	-0.24693279
201	0xbcbbcbe2	-0.022924367
202	0xbddee07e	-0.10882662
203	0x3e8a5aa6	0.27022284
204	0x3deb215d	0.11480973
205	0x3da98a21	0.08278299
206	0xbe0e1c19	-0.13877906
207	0x3e15cda3	0.14629225
208	0xbdd145f4	-0.102184206
209	0xbe60a94e	-0.21939585
210	0x3e15f198	0.14642942
211	0xbd127a03	-0.03576089
212	0x3e3e3d39	0.18578042
213	0x3e9740c3	0.29541597
214	0xbe0f1b45	-0.13975246
215	0xbe3590ae	-0.17730972
216	0xbe186d66	-0.14885482
217	0xbe44ed75	-0.19231208
218	0xbe6ff403	-0.23432927
219	0x3e7848be	0.24246499
220	0x3ca68a76	0.020329695
221	0x3c8b2ffc	0.016990654
222	0x3e8b87e4	0.27252114
223	0xbda189a2	-0.078875795
224	0x3e86208a	0.261967
225	0x3dc0569d	0.0939152
226	0x3e9cba2a	0.30610782
227	0x3e82d336	0.25551766
228	0xbe207c55	-0.15672429
229	0x3ca63754	0.020290054
230	0x3e95c982	0.292553
231	0x3e1ff5a6	0.15621051
232	0x3e8bf947	0.2733862
233	0x3e485e8c	0.19567317
234	0xbc8c0f96	-0.017097276
235	0xbd2d5e80	-0.04232645
236	0xbe23483e	-0.15945527
237	0x3df1c47c	0.118050545
238	0xbe8c655e	-0.27421087
239	0xbd6f62d2	-0.05844385
240	0x3dbebb56	0.09313075
241	0x3ee7043f	0.45120427
242	0x3cde7336	0.027154546
243	0xbde8ada7	-0.113612466
244	0xbd8ad1f0	-0.06778324
245	0xbe1c009b	-0.15234606
246	0x3e50a813	0.20376615
247	0x3ec615bb	0.38688454
248	0x3d95e140	0.07318354
249	0x3e74025c	0.23829025
250	0x3e82512b	0.2545255
251	0xbe0c0720	-0.13674593
252	0xbe21a6ea	-0.15786329
253	0xbe10e88c	-0.1415121
254	0x3ea40ca1	0.32040885
255	0x3e2f2951	0.17105605

lstm.weight_ih_l1 f4 [512, 128]
0	0xbd1e75a4	-0.03868641
1	0xbdf14fb3	-0.117827795
2	0x3fd135a1	1.6344491
3	0xbdaa081d	-0.08302329
4	0x3dc1b94c	0.09459171
5	0xbe613c2b	-0.21995609
6	0x3d916a9f	0.071004145
7	0x3eeb9897	0.46014854
8	0xbe94969a	-0.2902115
9	0x3a0a4dca	0.00052758737
10	0xbdef8a8a	-0.11696346
11	0xbf9ee008	-1.2412119
12	0xbdb4e51e	-0.08832763
13	0xbe20710d	-0.15668125
14	0xbee91b55	-0.45528665
15	0x3e1ed32b	0.15510242
16	0xbe41e6fd	-0.18935771
17	0x3e8689d5	0.26277032
18	0x3f9002f2	1.1250899
19	0xbea2ee87	-0.31822607
20	0x3dd7ae8e	0.105313405
21	0xbc1d1672	-0.009587871
22	0x3e90e7ee	0.28301948
23	0xbe1a5bba	-0.15074053
24	0xbe94c3fe	-0.2905578
25	0x3e62d3d0	0.22151113
26	0xbe993c71	-0.29928926
27	0x3de918f8	0.113817155
28	0xbe578277	-0.21045862
29	0xbe84e048	-0.25952363
30	0xbe1ace22	-0.15117696
31	0xbd6947ee	-0.056953363
32	0xbe3e6dfc	-0.18596643
33	0x3c5cc337	0.013474277
34	0xbebe518f	-0.371716
35	0xbebc6cee	-0.36801857
36	0x3dc59e37	0.09649318
37	0xbdc000da	-0.093751624
38	0xbd23b1d3	-0.03996451
39	0x3e9aab5f	0.3020887
40	0xbe1da236	-0.1539391
41	0x3dd10370	0.10205734
42	0x3e5f3f19	0.21801414
43	0x3edb21ef	0.42799327
44	0x3e581da8	0.21105063
45	0xbd2eb807	-0.04265597
46	0x3ead2dea	0.33824092
47	0xbe996d74	-0.2996632
48	0x3e3722cb	0.17884366
49	0x3e296937	0.16544043
50	0xbe59ba41	-0.21262456
51	0xbdf37e59	-0.11889333
52	0x3d8be839	0.06831402
53	0xbe9f07b6	-0.3106057
54	0xbe8af947	-0.2714331
55	0x3dc2baf1	0.095083125
56	0x3d03abef	0.03214639
57	0x3db5c600	0.08875656
58	0xbd71eae4	-0.0590619
59	0x3ed6bc47	0.4194052
60	0xbdd0345c	-0.10166237
61	0x3cbfb55c	0.023401909
62	0x3b1778be	0.002311274
63	0xbec8ad82	-0.39194876
64	0xbec4c32f	-0.38430163
65	0x3d74e2d1	0.05978662
66	0x3e8db1e7	0.2767479
67	0xbe8cc598	-0.27494502
68	0xbd37e339	-0.04489443
69	0x3ed0e1ad	0.40797177
70	0xbda641fd	-0.08118055
71	0xbcca00ac	-0.024658523
72	0x3d88b179	0.06674475
73	0x3ed3b8bc	0.4135188
74	0xbe489ae7	-0.1959034
75	0xbec81da9	-0.3908513
76	0x3db1ce92	0.08681978
77	0x3e1fca02	0.15604404
78	0x3f32d351	0.69853693
79	0x3e649828	0.22323668
80	0xbe5013a5	-0.20319994
81	0x3e5ad074	0.21368581
82	0xbedba4f3	-0.42899284
83	0xbdf35a9a	-0.11882515
84	0xbe309eda	-0.17248097
85	0x3ed3038c	0.41213644
86	0xbd312c1b	-0.043254953
87	0x3e8a1f73	0.2697712
88	0x3dbadaef	0.091237895
89	0xbcfb09de	-0.030644353
90	0xbdccc617	-0.0999872
91	0xbcb04802	-0.021518711
92	0xbd45af8d	-0.04826312
93	0x3e6d6fb9	0.2318715
94	0xbabfce6f	-0.0014633666
95	0x3df6867d	0.1203737
96	0x3f5151a9	0.8176523
97	0x3d6223db	0.055209976
98	0x3deaedd2	0.11471142
99	0x3a9c2eb6	0.0011915776
100	0x3e234b53	0.15946703
101	0xbd2ec323	-0.042666566
102	0x3cc1ff4f	0.023681311
103	0xbe6f9647	-0.2339717
104	0x3d5bbae0	0.053645015
105	0x3c3c18d3	0.011480528
106	0x3b8f5231	0.0043738117
107	0xbee80c0c	-0.4532169
108	0x3f978f02	1.1840518
109	0xbe028f91	-0.12750079
110	0xbe8224b4	-0.25418627
111	0xbdeb0065	-0.114746846
112	0x3d56426d	0.052309442
113	0xbd66343f	-0.05620217
114	0xbf9ce7d1	-1.2258245
115	0xbe5e9dca	-0.21739879
116	0xbe05e680	-0.1307621
117	0xbefb1921	-0.4904261
118	0xbeaf1573	-0.34196052
119	0xbe504976	-0.20340523
120	0x3ebae66e	0.3650393
121	0x3f5e918f	0.86940855
122	0xbd43a85d	-0.047767986
123	0xbe6b2179	-0.22961988
124	0xbd3fc5c7	-0.046819475
125	0xbe2f207f	-0.1710224
126	0xbedb7277	-0.42860767
127	0x3e9a746e	0.30166954
128	0x3eedc643	0.46440324
129	0xbf319f85	-0.6938403
130	0x3e54008e	0.20703337
131	0xbebff8bb	-0.37494454
132	0x3e1ba08b	0.15197961
133	0x3e589be0	0.21153212
134	0xbde5959f	-0.112101786
135	0xbe550edf	-0.20806454
136	0x3d6bb366	0.057544135
137	0x3d9be2e8	0.07611638
138	0x3e387039	0.1801156
139	0xbdbdce1a	-0.092678264
140	0x3c26e755	0.01018699
141	0x3e447d1c	0.1918835
142	0x3dd1ff15	0.10253731
143	0x3de7de94	0.1132175
144	0x3e32c60c	0.17458361
145	0x3ccef984	0.025265463
146	0xbd433c9f	-0.047665235
147	0xbe4f4464	-0.20240933
148	0xbe22d917	-0.15903126
149	0xbe3994be	-0.18123147
150	0x3db80403	0.0898514
151	0xbe78a6b9	-0.2428235
152	0xbea8d9be	-0.32978624
153	0xbc53cd28	-0.012927331
154	0xbdd82123	-0.10553195
155	0x3e32e078	0.1746844
156	0x3dad02e4	0.08447817
157	0x3ef1707c	0.4715613
158	0x3e4aa163	0.19788127
159	0x3e3d1ca5	0.18467958
160	0x3e51a12f	0.20471643
161	0x3e2ddf0d	0.16979618
162	0x3f40ddb3	0.75338286
163	0x3ce8c013	0.0284119
164	0x3d9cd92b	0.07658609
165	0xbe63f8d5	-0.2226289
166	0x3eb7db43	0.3590947
167	0x3dff6269	0.12469942
168	0x3c8db9bd	0.017300481
169	0x3e8df45a	0.27725488
170	0xbe3ee050	-0.18640256
171	0xbdde534f	-0.108557336
172	0x3e49e306	0.19715509
173	0xbe142434	-0.14466935
174	0x3d77ab98	0.06046638
175	0xbe032a52	-0.12809113
176	0xbdae3932	-0.08507003
177	0x3e4133ee	0.18867466
178	0x3be85e48	0.0070913173
179	0x3dc97279	0.09836287
180	0x3a7b5f7e	0.00095891196
181	0xbdc29637	-0.095013075
182	0x3e06519d	0.1311707
183	0x3df155bc	0.11783931
184	0x3c0d3fef	0.0086212
185	0xbe2486ca	-0.16067043
186	0x3c9a761a	0.018855143
187	0x3e6c4fb7	0.23077284
188	0xbea1df8f	-0.31615874
189	0x3e79e7b1	0.2440479
190	0x3ee1eb0e	0.44124645
191	0x3ec46fca	0.38366538
192	0x3e8855c9	0.2662795
193	0x3f00fd91	0.5038691
194	0x3dc583cd	0.0964428
195	0xbd9c2503	-0.07624247
196	0x3e948bfa	0.29013044
197	0xbd200f26	-0.039076947
198	0xbd5d107c	-0.0539708
199	0x3c7886ad	0.015168828
200	0xbdda4315	-0.10657326
201	0x3e3fb1d5	0.18720181
202	0xbd04c060	-0.032410026
203	0xbe67c660	-0.22634268
204	0xbe22d546	-0.1590167
205	0x3ec33696	0.38127583
206	0xbe4f3785	-0.20236023
207	0x3e6535de	0.2238383
208	0xbebf9359	-0.37417105
209	0x3e4e0a5f	0.20121144
210	0xbe0059ae	-0.1253421
211	0x3e1274ef	0.14302419
212	0x3e3e3073	0.1857317
213	0x3e12ee4d	0.14348717
214	0xbeef8b2f	-0.46785876
215	0x3e8b62d4	0.27223837
216	0xbdaad3d7	-0.083411865
217	0xbb94e9f5	-0.0045444914
218	0x3d998d50	0.07497656
219	0x3c85ea7e	0.016347166
220	0x3eaca1a2	0.33717066
221	0xbe107533	-0.14107208
222	0xbe84e27d	-0.25954047
223	0xbcd561b2	-0.026047561
224	0x3e40c70f	0.18825935
225	0xbd945337	-0.072424345
226	0x3e74f453	0.23921327
227	0x3e3c76ca	0.1840469
228	0x3e3ff1fe	0.18744656
229	0x3db23acb	0.0870262
230	0x3e9e98ec	0.30976045
231	0x3ed12309	0.40847042
232	0x3e2f130a	0.17097107
233	0xbe0f72d2	-0.14008644
234	0xbe1dd088	-0.1541158
235	0x3e1a9515	0.15095933
236	0xbde56690	-0.11201203
237	0x3d84fcf4	0.064935595
238	0x3e6accd3	0.22929697
239	0x3db60e04	0.08889392
240	0x3eb79e99	0.35863188
241	0x3eeda309	0.46413448
242	0x3e711654	0.23543674
243	0x3e5a9021	0.21344043
244	0xbd297b3c	-0.04137729
245	0x3f4ad138	0.7922549
246	0xbe479907	-0.19491969
247	0xbe31b39f	-0.17353676
248	0x3edafb7c	0.42769992
249	0x3e8be3ee	0.27322334
250	0x3e3a2029	0.1817633
251	0x3da3806c	0.07983479
252	0x3d6592e3	0.056048285
253	0x3ee9471d	0.45562068
254	0x3e2a742a	0.16645876
255	0x3d8bc228	0.06824142

lstm.weight_hh_l1 f4 [512, 128]
0	0xbf3b630f	-0.73198026
1	0x3e3d0e8a	0.18462577
2	0xbe1462c5	-0.14490803
3	0x3de471fe	0.11154555
4	0xbd09ea0f	-0.03367048
5	0xbe0670c0	-0.13128948
6	0xbe01f323	-0.12690406
7	0xbd9437f1	-0.072372325
8	0x3e7e752c	0.24849385
9	0x3e4396cb	0.19100492
10	0x3d2098be	0.039208166
11	0xbe51e4ff	-0.20497511
12	0xbec316eb	-0.38103423
13	0x3d2d1657	0.042257633
14	0xbe0bf9c2	-0.13669494
15	0x3e1f0c7d	0.15532108
16	0xbbc5c128	-0.006034989
17	0x3b82bfdd	0.003990157
18	0xbe4f40a2	-0.20239499
19	0x3eb7d1cf	0.3590226
20	0xbd739cff	-0.059475895
21	0xbe1517f3	-0.14559917
22	0x3e04b4c2	0.12959579
23	0xbd7243ac	-0.05914657
24	0x3ec70e56	0.38878125
25	0x3e5b2002	0.21398929
26	0xbe7b2d36	-0.24528965
27	0xbdac23dd	-0.08405278
28	0xbe5010e6	-0.20318946
29	0x3c915d83	0.017744785
30	0x3ee1917f	0.44056317
31	0xbd841b2f	-0.06450497
32	0x3e5b9aa1	0.21445705
33	0x3df71560	0.12064624
34	0x3e47b26e	0.1950166
35	0x3dbdd042	0.09268238
36	0x3d982351	0.07428611
37	0x3e39b9c4	0.1813727
38	0x3deb5179	0.11490149
39	0x3d30c40c	0.043155715
40	0x3e8876df	0.2665319
41	0xbd84ddfd	-0.064876534
42	0x3dc8d42f	0.09806096
43	0x3e551c88	0.20811665
44	0xbe55dd44	-0.20885187
45	0x3e197b16	0.1498836
46	0x3e2e562f	0.17025064
47	0xbdff2b9f	-0.12459492
48	0xbe1a226c	-0.15052193
49	0x3c963690	0.018336564
50	0xbe863161	-0.26209548
51	0xbef65e99	-0.48119047
52	0xbd18c4c7	-0.037297036
53	0x3d846de8	0.064662755
54	0xbd19e804	-0.037574783
55	0xbd9ccbd2	-0.07656063
56	0x3dc03a15	0.09386078
57	0x3c6202c4	0.013794605
58	0x3d9d495f	0.0768001
59	0x3ea8edb0	0.3299384
60	0x3e10fb3d	0.1415834
61	0x3e1be837	0.15225302
62	0x3e7fdf7d	0.24987598
63	0xbcce74f7	-0.025202258
64	0xbe93ad07	-0.28842947
65	0xbe2f9cd5	-0.1714967
66	0x3dd6ab46	0.104818866
67	0xbdda8761	-0.10670353
68	0x3da233cc	0.07920036
69	0xbd9b967f	-0.07597064
70	0x3e963bba	0.29342443
71	0x3e658a86	0.22416124
72	0xbe0dafe6	-0.13836631
73	0xbdc5532b	-0.09635004
74	0xbddf010d	-0.10888872
75	0xbcb53b2f	-0.022122947
76	0x3d869080	0.0657053
77	0xbe212e89	-0.15740408
78	0x3f2b7e44	0.6698954
79	0x3e6ce35b	0.23133604
80	0xbed62fac	-0.41833246
81	0xbd585cf8	-0.052823037
82	0x3c524a0d	0.012835038
83	0x3c71adae	0.014750881
84	0x3e011fda	0.12609807
85	0x3d080266	0.033205412
86	0x3c121aa0	0.008917481
87	0x3e4936c6	0.196498
88	0x3dea4834	0.11439553
89	0x3d703e7d	0.058653343
90	0x3e3f14fb	0.18660347
91	0x3d252771	0.040320817
92	0x3f02598b	0.5091788
93	0x3cc9ce0c	0.024634384
94	0xbd8ffea8	-0.07030994
95	0x3d816afd	0.063192345
96	0xbd249f4a	-0.040190972
97	0xbda2a8bd	-0.079423405
98	0x3e54feb6	0.2080029
99	0xbd6e6b49	-0.058207784
100	0x3d5bac46	0.05363109
101	0xbdcde0ea	-0.100526646
102	0x3da15c4e	0.07878934
103	0xbd9290c8	-0.07156521
104	0x3c7da2ea	0.015480736
105	0xbba162b2	-0.0049250955
106	0x3ead065a	0.33793908
107	0x3e003a93	0.12522344
108	0x3e8daa12	0.27668816
109	0xbeb91669	-0.3614991
110	0xbe017049	-0.1264049
111	0x3e97d273	0.29652748
112	0xbdb6b703	-0.089216255
113	0xbef3629d	-0.47536173
114	0x3e187e0f	0.14891838
115	0x3ea0a554	0.31376135
116	0xbc9e2de0	-0.019308984
117	0xbcce7550	-0.025202423
118	0xbe6853a6	-0.2268816
119	0xbd8aac99	-0.06771202
120	0xbe649b47	-0.22324859
121	0x3dbafe61	0.0913055
122	0xbdefd56e	-0.1171063
123	0x3ed5333c	0.4164065
124	0x3e58f025	0.21185358
125	0x3ece10ab	0.40247092
126	0x3df09b8a	0.11748417
127	0xbed967b1	-0.42461923
128	0x3c9d291f	0.019184647
129	0xbecdba3d	-0.4018115
130	0xbe35197b	-0.17685501
131	0x3e86444c	0.2622398
132	0x3dfeb55e	0.12436937
133	0x3d4d60fd	0.050141323
134	0x3e1a3dd6	0.15062651
135	0xbe69bea0	-0.22826624
136	0xbd407590	-0.046987116
137	0xbd9d5afb	-0.07683369
138	0xbde4f564	-0.11179617
139	0xbe6a71f0	-0.22895026
140	0x3e236f2c	0.15960377
141	0xbed7ea5d	-0.42170992
142	0x3ea7b5a0	0.32755756
143	0xbcd032f8	-0.025414929
144	0x3d3f6fc0	0.046737432
145	0x3e7e52eb	0.24836318
146	0x3e26337a	0.16230574
147	0xbde00ef5	-0.10940353
148	0x3e984534	0.29740298
149	0x3e20c65b	0.15700667
150	0xbe053406	-0.13008127
151	0xbe0f68f8	-0.14004886
152	0x3ebd10d6	0.36926907
153	0x3d9c2d9c	0.07625887
154	0x3dc24b44	0.09487012
155	0xbe5e80c8	-0.21728814
156	0x3ebb5139	0.36585405
157	0x3e1c9f83	0.15295224
158	0xbe1f904f	-0.15582393
159	0x3e97b038	0.29626632
160	0x3df769f5	0.120807566
161	0x3e32bbdc	0.17454475
162	0x3cc72a07	0.024312032
163	0x3dd7bdb8	0.10534233
164	0x3e20545c	0.1565718
165	0x3edd5852	0.43231446
166	0xbefaddee	-0.48997444
167	0xbcbd18f7	-0.023083193
168	0xbe09ffe1	-0.13476516
169	0xbdacff2b	-0.08447107
170	0x3daecbfc	0.08535001
171	0xbec1b9ec	-0.3783716
172	0x3e71dc18	0.23619115
173	0x3c8f0cfe	0.01746225
174	0x3ea49777	0.32146809
175	0x3de16b98	0.1100685
176	0x3e7d80a9	0.24756111
177	0x3e412f09	0.18865599
178	0xbeac52fc	-0.33657062
179	0x3d726cab	0.059185665
180	0xbe5ad3bb	-0.21369831
181	0xbd57dec7	-0.05270269
182	0x3e0f0010	0.13964868
183	0x3d8ffdcc	0.0703083
184	0xbdf5f77b	-0.12010094
185	0xbd236454	-0.039890602
186	0x3e271751	0.16317488
187	0x3ea07722	0.3134089
188	0xbea06f7f	-0.31335065
189	0x3e53b648	0.20675004
190	0xbe455086	-0.19268999
191	0x3e3d3126	0.1847578
192	0x3e175875	0.14779837
193	0x3e6e2cd2	0.23259285
194	0x3f14fac1	0.5819512
195	0xbe59ac84	-0.21257216
196	0xbe2760a9	-0.16345467
197	0xbe844e7d	-0.25841132
198	0x3e6e6649	0.23281206
199	0x3e11c925	0.14236887
200	0x3e11fdfc	0.14257044
201	0x3d69fcc7	0.057125833
202	0x3dfd4fd0	0.12368739
203	0x3d0d1aaf	0.034449276
204	0x3e680420	0.22657824
205	0xbe7c2e41	-0.2462702
206	0x3d34919b	0.044084173
207	0x3e5082ca	0.20362392
208	0x3db4fce4	0.088372976
209	0xbe74dea4	-0.23913056
210	0xbead08da	-0.33795816
211	0x3d08dd3f	0.03341412
212	0xbe266cf4	-0.162525
213	0xbed4b5a0	-0.4154482
214	0xbe2702ba	-0.16309634
215	0xbdde1ab0	-0.10844934
216	0x3f3725b4	0.71541905
217	0x3eeabe70	0.45848417
218	0xbd956bef	-0.07295977
219	0xbe096429	-0.13417114
220	0xbebb5ab5	-0.3659264
221	0x3e41db71	0.18931367
222	0xbea6ebfa	-0.3260191
223	0xbd668cd6	-0.056286655
224	0xbe261ee8	-0.16222727
225	0x3e03c236	0.12867054
226	0xbe9e6d96	-0.30942982
227	0xbdfd7b1a	-0.123769954
228	0x3d0b0667	0.033941653
229	0xbee7cb9e	-0.45272535
230	0xbf4260dc	-0.75929046
231	0x3c331dde	0.010932414
232	0xbe216ced	-0.15764208
233	0xbe1b04cf	-0.15138553
234	0x3e034e08	0.12822735
235	0x3e3849eb	0.17996947
236	0xbd97ce81	-0.07412434
237	0x3d610e08	0.054945022
238	0xbecb9e5f	-0.39769265
239	0x3d7288f8	0.059212655
240	0x3e513a49	0.2043239
241	0x3e02100d	0.12701435
242	0xbe0fdcfe	-0.14049146
243	0xbce1a580	-0.027544737
244	0xbe99d5db	-0.3004597
245	0x3f25e84e	0.64807594
246	0xbe431ed0	-0.19054723
247	0x3f22663f	0.63437265
248	0x3e9f4fa5	0.3111545
249	0x3ea14816	0.3150031
250	0x3e5d9e84	0.216425
251	0xbef3a6c8	-0.47588181
252	0xbec17888	-0.3778727
253	0x3e47e9ae	0.19522735
254	0xbdbe05b3	-0.09278431
255	0xbd467519	-0.048451517

lstm.bias_ih_l1 f4 [512]
0	0x3e1c6f22	0.15276769
1	0xbe83772a	-0.25676852
2	0xbeb2e077	-0.34936878
3	0x3d7bd274	0.06148
4	0xbea65ebe	-0.32494158
5	0xbef27617	-0.4735572
6	0xbe792ec0	-0.2433424
7	0xbeb73ea3	-0.35789976
8	0xbeae12b6	-0.3399865
9	0xbe78a980	-0.24283409
10	0x3d9dcda5	0.07705239
11	0xbea27c6f	-0.3173556
12	0xbe3e4b0d	-0.18583317
13	0xbea6dd79	-0.32590845
14	0xbea97c41	-0.3310261
15	0xbe8338f2	-0.25629383
16	0xbf041844	-0.51599526
17	0xbe22aebb	-0.15886967
18	0xbe5f02cb	-0.21778409
19	0xbda46b65	-0.080282964
20	0xbe24d652	-0.16097382
21	0xbdbe51e4	-0.09292963
22	0xbea073a1	-0.31338218
23	0xbee59361	-0.44839004
24	0xbf2953e4	-0.6614363
25	0xbef3110a	-0.47473937
26	0x3ce54a1e	0.027989443
27	0xbdae8a0a	-0.085224226
28	0xbea06cbc	-0.31332958
29	0xbea2e8dd	-0.31818286
30	0xbebb5bd3	-0.36593494
31	0xbe89e9fe	-0.26936334
32	0xbd63bbb8	-0.055598944
33	0xbe8b212e	-0.27173752
34	0xbe793ae6	-0.24338874
35	0xbea7f257	-0.32802078
36	0xbe2c238c	-0.16810435
37	0xbec1685a	-0.37774926
38	0xbe9eef01	-0.3104172
39	0xbed0ccca	-0.40781242
40	0xbea07d61	-0.31345657
41	0xbebd2094	-0.36938918
42	0xbf077701	-0.5291596
43	0xbeef2948	-0.46711183
44	0x3e4ba731	0.19887997
45	0xbd4644b5	-0.048405368
46	0xbead6702	-0.3386765
47	0xbe91d23a	-0.28480703
48	0xbe936352	-0.28786713
49	0xbe934c47	-0.28769132
50	0xbe500e5f	-0.20317982
51	0xbe7d543a	-0.24739161
52	0xbea9f20c	-0.3319248
53	0xbeb6df49	-0.35717228
54	0xbf012366	-0.5044464
55	0xbe401f6e	-0.1876199
56	0xbe493ee2	-0.19652894
57	0xbe8a90b0	-0.27063513
58	0x3da7a144	0.08185056
59	0xbe763a41	-0.2404566
60	0xbdf6452b	-0.120249115
61	0xbe389390	-0.1802504
62	0xbe530f60	-0.20611334
63	0xbed947a7	-0.4243748
64	0xbe03e7b3	-0.12881355
65	0x3ccc15e7	0.024912788
66	0xbe9c1bf3	-0.30490074
67	0xbe1bc4a2	-0.15211728
68	0xbebfebd5	-0.37484613
69	0xbebfd31e	-0.37465757
70	0xbeefa36e	-0.46804374
71	0x3e03a30a	0.12855163
72	0xbe50375a	-0.20333615
73	0xbe4c05d5	-0.199241
74	0xbeb8e037	-0.36108562
75	0xbef3eec9	-0.47643116
76	0xbe4ae214	-0.19812804
77	0xbebe8b13	-0.3721548
78	0xbe867b66	-0.2626602
79	0xbf105fdb	-0.56396264
80	0xbda519d4	-0.08061567
81	0xbe86e08e	-0.26343197
82	0xbe459161	-0.19293739
83	0xbe68ca98	-0.22733533
84	0xbe578414	-0.21046478
85	0xbed1b80a	-0.40960723
86	0xbf0177ad	-0.50573236
87	0xbddfa0e8	-0.10919362
88	0xbe4a82be	-0.19776437
89	0xbdae6504	-0.08515361
90	0xbe8ae3e1	-0.27126983
91	0xbde9786c	-0.11399922
92	0x3db64894	0.08900562
93	0xbead7dd4	-0.33885062
94	0xbf0688e0	-0.52552605
95	0xbec69863	-0.38788137
96	0xbc7595a7	-0.014989293
97	0xbec39e8f	-0.38206908
98	0xbed06a80	-0.40706253
99	0xbe422f26	-0.18963298
100	0xbeac5184	-0.3365594
101	0xbe523ed1	-0.20531775
102	0xbe809354	-0.25112402
103	0xbe30ff1a	-0.17284814
104	0xbe9a42a9	-0.30128983
105	0xbe310a44	-0.17289072
106	0xbe999c91	-0.30002263
107	0xbebdb876	-0.37054795
108	0xbed2c663	-0.41166982
109	0x3e0192ff	0.12653731
110	0xbebb46e2	-0.36577517
111	0xbecf0178	-0.40430808
112	0xbe43ab3c	-0.1910829
113	0xbdea37bb	-0.11436411
114	0xbe89e92d	-0.26935712
115	0xbe87443a	-0.2641924
116	0xbeb8b1ac	-0.36073053
117	0x3daf3bbb	0.085563146
118	0xbc94398e	-0.01809385
119	0xbf0f760d	-0.56039506
120	0xbe47c875	-0.19510062
121	0xbea1ca56	-0.31599683
122	0xbe6244a5	-0.22096498
123	0xbd7591ca	-0.05995349
124	0xbe9f8e7d	-0.31163397
125	0xbe700725	-0.23440225
126	0xbeb02a17	-0.34407112
127	0xbee1b80f	-0.44085738
128	0x3e63affc	0.22235101
129	0x3e16d77d	0.1473064
130	0x3e8ac19b	0.27100834
131	0xbdf5f932	-0.12010421
132	0x3e1d9dd3	0.15392236
133	0x3e5b80e0	0.2143588
134	0xbd35822a	-0.044313587
135	0x3e849724	0.2589656
136	0x3ed56115	0.4167563
137	0xbbc78d82	-0.006089867
138	0x3da6e4c5	0.08149103
139	0x3eb51289	0.35365704
140	0xbe8fbb12	-0.2807241
141	0x3f063c5b	0.52435845
142	0xbdf51e53	-0.119686745
143	0x3d962db5	0.07332937
144	0x3e9af603	0.30265817
145	0xbd12a0bc	-0.03579782
146	0x3ec34848	0.38141084
147	0xbd865559	-0.065592475
148	0x3e56e735	0.20986636
149	0xbd8f1530	-0.06986463
150	0x3e88cfb7	0.26720974
151	0x3e7ab799	0.244841
152	0x3e831594	0.256024
153	0x3c2044ce	0.009782029
154	0x3dda8fdd	0.10671971
155	0x3e4061d2	0.18787315
156	0x3cb70ba8	0.022344425
157	0x3d8af994	0.067858845
158	0x3e69261d	0.22768445
159	0x3e8630dc	0.26209152
160	0xbdbef7c8	-0.09324604
161	0xbe7e415d	-0.24829622
162	0x3d530f9b	0.051528554
163	0x3e7ca01b	0.2467045
164	0xbe5e4d3d	-0.21709152
165	0x3db19925	0.08671788
166	0xbda036a4	-0.07822922
167	0x3eaff329	0.34365204
168	0x3eb20740	0.34771156
169	0x3e802234	0.25026095
170	0x3d418332	0.04724426
171	0x3e870b04	0.26375592
172	0x3d27306f	0.040817674
173	0xbd9bb134	-0.07602158
174	0x3e9a665e	0.30156225
175	0x3cd22de0	0.02565664
176	0x3cbf6377	0.023362858
177	0x3e8f0b05	0.27938095
178	0xbe808e39	-0.25108507
179	0xbead11f9	-0.33802775
180	0x3ec5337f	0.3851585
181	0x3e30624c	0.17224997
182	0x3dddc1e1	0.10827995
183	0x3d2cbaa4	0.042170182
184	0x3eaf3c8c	0.3422588
185	0x3e036654	0.12832004
186	0xbcec536a	-0.028848369
187	0x3d614c10	0.05500418
188	0xbe8fab11	-0.280602
189	0xbe17b37d	-0.14814563
190	0xbdad2a23	-0.084553026
191	0x3db99ce7	0.0906313
192	0xbd0d4119	-0.03448591
193	0xbd67ebf8	-0.05662152
194	0x3db1d363	0.08682897
195	0xbe835222	-0.256486
196	0x3e1f04a0	0.15529108
197	0x3eabb4ee	0.33536476
198	0xbc14a9b8	-0.009073667
199	0x3e0dd330	0.13850093
200	0x3ed6549f	0.41861436
201	0xbe316bfd	-0.1732635
202	0xbe352934	-0.17691499
203	0x3ed3ebb6	0.4139077
204	0x3dc1d9fd	0.09465406
205	0x3e8699b3	0.26289138
206	0xbda7a153	-0.08185067
207	0x3d9f6c66	0.07784347
208	0xbc0d8e2c	-0.008639853
209	0x3d67686d	0.056496073
210	0xbc85a50b	-0.01631405
211	0xbdb27e61	-0.08715511
212	0x3dce8860	0.10084605
213	0x3e67e232	0.2264488
214	0x3e3427e3	0.1759334
215	0x3da1fac5	0.079091586
216	0x3db4ca1f	0.08827614
217	0xbba3b561	-0.0049959873
218	0x3e23e979	0.16007032
219	0x3af1b4d0	0.0018440727
220	0x3e216114	0.15759689
221	0x3b9bfe8e	0.00476057
222	0x3e3c8751	0.18410994
223	0x3e3af71a	0.18258324
224	0x3d8fc6da	0.0702035
225	0xbd05e844	-0.03269221
226	0x3e96849f	0.29398057
227	0xbdaa0343	-0.083014034
228	0x3dd06a97	0.101765804
229	0x3d05aa32	0.032633014
230	0x3eedcf83	0.4644738
231	0x3e274fdb	0.16339056
232	0x3dad9e85	0.08477501
233	0x3e341dcf	0.17589496
234	0x3e2701b2	0.1630924
235	0x3e064cae	0.13115188
236	0x3dec8354	0.11548486
237	0xbcd2dda2	-0.025740448
238	0x3e88d0c1	0.26721767
239	0x3e73a73b	0.23794262
240	0xbd9149ce	-0.07094155
241	0xbe35fb81	-0.17771722
242	0x3e44c3b3	0.19215278
243	0x3d258b28	0.040415913
244	0x3e1f4f2a	0.15557542
245	0xbd2b2ec3	-0.041792642
246	0xbe32c6ba	-0.1745862
247	0x3c6f8938	0.014620118
248	0xbb478a2c	-0.0030447347
249	0x3d16164a	0.03664235
250	0x3e75d112	0.24005535
251	0x3d13a332	0.036044307
252	0x3e948430	0.290071
253	0x3e967b61	0.29391006
254	0x3e7367f2	0.2377012
255	0x3e5ec82b	0.21756046
