projectAI/real_best_model.pth (torch, 870825 bytes, 10 tensors)

lstm.weight_ih_l0 f4 [512, 34]
-0.4610239 -0.42775467 -0.32133812 -0.27796227 -0.2622187 -0.21493296 -0.21548519 -0.45432264
-0.14878263 0.19837159 -0.52254725 -0.3164862 -0.52332556 -0.26803607 -0.19543217 -0.17687982
-0.33714908 -0.010328568 -0.024161879 0.04595864 -0.27357572 -0.107924245 -0.4934406 -0.116089195
-0.5134413 0.00840211 -0.46452314 -0.18633947 -0.43860933 -0.13020387 -0.2511689 -0.21826869
-0.6480688 -0.35223866 0.07739959 -0.30428308 0.64067453 0.5015415 0.44688046 0.06918303
-0.16511787 -0.31361598 0.16839288 -0.29463097 -0.24695542 -0.566506 -0.28297272 -0.19001251
-0.1194818 -0.3625015 -0.01277257 -0.046394475 0.16548435 -0.055669613 -0.09223924 -0.6140761
-0.13509934 -0.44777328 -0.03035618 -0.3259591 -0.15790325 -0.328191 -0.14328457 -0.32821468
-0.114455536 -0.3964446 0.010500081 -0.39785385 -0.15705904 -0.108362526 -0.28288496 -0.18102783
0.009435546 -0.40824607 0.22174965 0.56005037 -0.18690619 -0.21418397 -0.3616139 -0.15873477
-0.047493897 -0.09403379 -0.17947766 -0.1538689 -0.099520035 -0.17077634 -0.08517755 0.28617585
-0.29609767 0.06868781 0.003253108 -0.38621515 0.14027011 -0.39932457 -0.018607743 -0.3081649
0.21376763 -0.17392443 0.2701582 -0.13371761 0.2630235 -0.25825873 -0.59853274 -0.22079663
-0.13636056 0.387441 -0.52500176 -0.2027812 0.50392354 0.15480547 0.16342434 -0.6785362
-0.05077055 -0.5644654 0.1213829 -0.539833 0.36977792 0.09510033 0.121048205 -0.19838893
0.0098043475 -0.39553466 0.15685357 -0.61580586 0.20149271 -0.31629 0.13339868 -0.3447852
0.24701849 -0.15619391 0.29016748 -0.18701136 0.29401577 -0.11738249 0.28303957 -0.01905466
-0.06077847 -0.3050197 0.30589774 -0.17453797 -0.1484137 -0.48733485 0.33220857 -0.2506875
-0.4265876 -0.16412285 0.2789922 0.19181946 0.31722808 0.080968715 0.48992828 0.26333362
-0.082136646 -0.27275717 0.06489854 0.14066869 -0.05237835 -0.11419878 0.08010795 0.5072707
0.12837808 0.35517836 0.03171302 0.3145734 0.0057154465 0.042890877 -0.1711811 0.23067641
-0.31118926 -0.008325483 -0.06864064 -0.5609385 0.21280055 -0.042968225 -0.030030055 -0.5768381
-0.59156126 -0.99954337 0.30305207 0.20072162 -0.06404905 -0.4121762 -0.24936372 -0.4220817
0.26102352 -0.18420786 -0.17581023 -0.16931975 0.280847 -0.36989126 0.034092464 0.102321975
-0.075246364 -0.4428397 -0.12033106 -0.32053265 -0.19465956 -0.17411381 -0.2621211 -0.10717938
-0.36352766 -0.23547816 -0.33605018 -0.25818422 -0.22254935 0.0139868995 0.11402903 -0.0581304
0.09443129 0.012871984 0.33027586 0.052601926 -0.16323842 -0.11758362 -0.13873753 -0.19165374
-0.07110727 -0.11221671 -0.0030782013 0.043781057 0.0029404054 0.10137988 0.01980171 0.26340568
-0.30112958 0.49238643 -0.10134288 -0.13495201 -0.041709997 -0.23899303 0.12182041 -0.11866123
-0.015002507 -0.1834719 0.0016338715 -0.33048013 0.10910871 -0.24885893 -0.12052639 -0.20362304
0.44578502 -0.033920463 -0.39190057 -0.42356783 0.24600609 0.33350697 -0.12174013 0.032871827
0.084575936 0.38024303 0.09911764 0.21051557 0.2509243 0.115043096 0.20916525 0.24700838
00000000: 530b ecbe a902 dbbe 6e86 a4be 1251 8ebe
00000010: 8841 86be 6317 5cbe 26a8 5cbe fa9c e8be
00000020: 795a 18be ec21 4b3e a8c5 05bf 7b0a a2be
00000030: aaf8 05bf 063c 89be 5f1f 48be fc1f 35be
00000040: ce9e acbe 2739 29bc 22ef c5bc 203f 3c3d
00000050: 1e12 8cbe 6307 ddbd 3fa4 fcbe 2cc0 edbd
00000060: e470 03bf 01a9 093c fad5 edbe c6cf 3ebe
00000070: 6791 e0be 2a54 05be 3699 80be d481 5fbe
00000080: d6e7 25bf a058 b4be ad83 9e3d feca 9bbe
00000090: 3f03 243f 0665 003f 84cd e43e d5af 8d3d
000000a0: a914 29be 4692 a0be 2f6f 2c3e dfd9 96be
000000b0: e2e1 7cbe 8a06 11bf cde1 90be a492 42be
000000c0: e0b2 f4bd cc99 b9be 0b44 51bc 2208 3ebd
000000d0: bb74 293e d205 64bd ede7 bcbd 1734 1dbf
000000e0: 7b57 0abe 8a42 e5be 86ad f8bc 1ce4 a6be
000000f0: 64b1 21be a708 a8be 31b9 12be c10b a8be
00000100: aa67 eabd c9fa cabe 8808 2c3c 80b3 cbbe
00000110: 16d4 20be 2ced ddbd 4cd6 90be 5c5f 39be
00000120: 8c97 1a3c a105 d1be 5712 633e 765f 0f3f
00000130: 5664 3fbe 0b53 5bbe 7525 b9be 5e8b 22be
00000140: f688 42bd ca94 c0bd fec8 37be cf8f 1dbe
00000150: 29d1 cbbd fedf 2ebe 9171 aebd a485 923e
00000160: 1d9a 97be 32ac 8c3d 1832 553b febd c5be
00000170: f8a2 0f3e 4574 ccbe 446f 98bc cac7 9dbe
00000180: e7e5 5a3e 3f19 32be 2d52 8a3e 45ed 08be
00000190: 04ab 863e 7d3a 84be 7139 19bf 8318 62be
000001a0: 1aa2 0bbe ab5e c63e 8466 06bf e0a5 4fbe
000001b0: 2201 013f 5385 1e3e b658 273e 8cb4 2dbf
000001c0: c8f4 4fbd ce80 10bf 9997 f83d 7f32 0abf
000001d0: 8853 bd3e f6c3 c23d 1fe8 f73d 7826 4bbe
000001e0: 6aa2 203c 8583 cabe 399e 203e 74a5 1dbf
000001f0: 1b54 4e3e c3f0 a1be aa99 083e b087 b0be
00000200: 6af2 7c3e 4cf1 1fbe d590 943e e87f 3fbe
00000210: 3c89 963e 3b66 f0bd 90ea 903e 8518 9cbc
00000220: d8f2 78bd 8b2b 9cbe a19e 9c3e 15ba 32be
00000230: c3f9 17be f483 f9be 3e17 aa3e 1d5a 80be
00000240: b169 dabe d20f 28be 11d8 8e3e 526c 443e
00000250: b86b a23e edd2 a53d e1d7 fa3e aad3 863e
00000260: 4237 a8bd d4a6 8bbe 87e9 843d 740b 103e
00000270: ae8a 56bd 0de1 e9bd a30f a43d 7edc 013f
00000280: 8b75 033e f0d9 b53e 83e5 013d c40f a13e
00000290: a448 bb3b 58ae 2f3d 194a 2fbe 7036 6c3e
000002a0: 3354 9fbe 9b67 08bc 7793 8cbd aa99 0fbf
000002b0: 63e8 593e 73ff 2fbd 9701 f6bc a9ab 13bf
000002c0: 8f70 17bf 13e2 7fbf a429 9b3e f889 4d3e
000002d0: 262c 83bd c208 d3be 3459 7fbe 181b d8be
000002e0: e0a4 853e fca0 3cbe 9907 34be 2862 2dbe
000002f0: 2ecb 8f3e 6362 bdbe 8aa4 0b3d 2f8e d13d
00000300: c41a 9abd e3bb e2be 2170 f6bd db1c a4be
00000310: d654 47be e44a 32be bd34 86be dd80 dbbd
00000320: 4c20 babe 3021 71be c50e acbe b930 84be
00000330: fae3 63be 4f29 653c 0d88 e93d 241a 6ebd
00000340: 3165 c13d 04e5 523c eb19 a93e 1e75 573d
00000350: f927 27be aecf f0bd 3611 0ebe e140 44be
00000360: b0a0 91bd e0d1 e5bd a6bb 49bb c453 333d
00000370: d1b3 403b 41a0 cf3d 3237 a23c 1cdd 863e
00000380: a82d 9abe 131a fc3e db8c cfbd dc30 0abe
00000390: 1ad8 2abd 97ba 74be fb7c f93d a904 f3bd
000003a0: 13cd 75bc 0fe0 3bbe a127 d63a b134 a9be
000003b0: 6374 df3d e0d4 7ebe 8ad6 f6bd 8f82 50be
000003c0: ef3d e43e 2ff0 0abd 31a7 c8be e2dd d8be
000003d0: 05e9 7b3e 6dc1 aa3e e452 f9bd 9ca4 063d
000003e0: 2636 ad3d 37af c23e 30fe ca3d 6591 573e
000003f0: 2679 803e b79b eb3d 6a2f 563e c4ef 7c3e

lstm.weight_hh_l0 f4 [512, 128]
0.11849464 1.0763044 -0.4996374 0.6190641 -0.61751676 -0.22722259 0.30207813 -0.13164662
0.087898344 -1.3526279 1.0010537 0.3906676 0.839602 -0.23262021 -0.04673988 -0.25880116
0.19696647 0.25621426 -0.10261407 -1.1336098 0.71030456 -0.1967652 -0.2544409 0.188386
0.32132828 -0.9149945 -0.35623133 0.16604783 0.8122021 0.43703875 0.057556607 1.2736418
-0.40525356 0.023487315 -0.53322005 -0.4148794 0.7296596 0.1701026 0.16691199 0.031917803
0.24689873 0.1822622 -0.106367715 0.53844094 0.37333426 -0.057016015 0.54427737 -0.5857858
-0.42105824 0.7765561 0.7154468 0.4915296 0.8549496 0.82549083 0.14158578 -0.17911854
-0.5595297 -1.6386253 -1.1273582 0.35276675 -0.33568373 -0.025242815 -0.6996781 -0.014721977
-0.7276669 0.7807632 0.02414261 0.31488705 0.33090308 0.86319166 0.114130005 -0.3026412
-0.0018064071 -0.6244525 0.2004707 -0.026148362 0.515775 0.36180702 -0.21388459 0.71818966
-0.49245545 0.0006013767 -0.5725277 0.6292509 -0.1164277 -0.15800427 -0.5009695 -0.19084047
-0.051332172 0.66789764 0.14678165 0.08591875 0.046817195 1.0614002 0.6061186 -0.9261492
0.41647854 0.21674961 0.11124066 -0.8041702 -0.08174711 0.9526953 -0.8338123 -0.8512932
-0.00046665352 -0.03400366 0.7713555 0.11964236 0.29542366 0.5721715 -0.44960704 1.291812
0.62222606 -1.0004267 -0.24067707 -0.15435255 -0.7971067 -0.49981064 0.7939526 -0.017701853
-0.36604813 0.021878775 -0.1987841 -0.6863532 -0.34338394 -0.0779118 -0.1461887 0.2614831
-0.46606568 -0.14148073 0.03498048 0.3775335 0.46287265 0.2697313 0.02989895 0.47299108
-0.11246543 0.7176389 0.23998247 -0.036962535 -0.90318066 0.19455394 0.49610195 -0.13694501
-0.10594692 0.6579884 0.09784227 0.04463584 -0.49178216 0.28920886 -0.13853621 0.21991153
0.29883623 -0.30432314 -0.123412 -0.5418761 0.02037968 0.7790212 -0.08378624 0.33063498
0.38798162 0.44724408 0.25464177 0.14513755 -0.3248149 -0.22431928 -0.970306 -1.0824256
0.43590692 0.3768553 0.8491864 -0.09529204 -0.00034389523 -0.33607528 -0.010379433 0.16512032
-0.121151075 -0.15081233 -0.5482839 -0.18006714 -0.42816192 0.6355183 -0.60981643 -0.18842378
-0.4699445 0.6198564 0.8683797 -0.41002846 0.6482276 0.4670578 0.36796376 0.94435716
0.44375855 -0.5522522 0.29894283 0.09357601 0.31529227 0.59418404 -0.5940535 0.118669294
-0.24277475 0.3603936 -0.41444123 -0.025049534 0.08649559 0.30821437 0.105760574 0.22766283
-0.7089521 -0.1258541 0.16981462 -0.2504161 0.01762357 -0.072915964 0.24266592 0.28990218
0.13935196 0.48563874 -0.3351609 -0.9048308 0.70141655 -0.08445666 -0.2843428 -0.43080366
-0.59017366 0.7221726 0.34709197 0.36269018 -0.5583035 -0.17574365 1.0752563 0.3816947
-0.0038006017 -0.0826909 -0.010092035 0.43284065 -0.21939175 -0.6115123 -0.1172045 0.16919354
-0.669483 0.26828018 -0.20290528 0.71456254 0.010097425 0.7292639 0.45285115 -0.28715298
0.2678951 0.19938636 -0.717606 0.7791432 0.35654822 -0.31277245 -0.1389876 0.035787992
00000000: 51ad f23d 58c4 893f 79d0 ffbe fc7a 1e3f
00000010: 9415 1ebf 0aad 68be fca9 9a3e 5fce 06be
00000020: 0c04 b43d e922 adbf 8722 803f 9505 c83e
00000030: 28f0 563f fe33 6ebe 5172 3fbd 9681 84be
00000040: 94b1 493e 842e 833e 5327 d2bd 201a 91bf
00000050: 85d6 353f d17c 49be 1446 82be 42e8 403e
00000060: 2485 a43e 143d 6abf f463 b6be 7108 2a3e
00000070: 7aec 4f3f 8bc3 df3e 7ac0 6b3d b206 a33f
00000080: 657d cfbe 7868 c03c 1c81 08bf 136b d4be
00000090: f9ca 3a3f 602f 2e3e faea 2a3e 3ebc 023d
000000a0: 05d3 7c3e f1a2 3a3e 51d7 d9bd 44d7 093f
000000b0: ab25 bf3e a089 69bd c355 0b3f 0ff6 15bf
000000c0: f294 d7be 61cc 463f 8627 373f c5a9 fb3e
000000d0: fadd 5a3f 5e53 533f ddfb 103e da6a 37be
000000e0: 573d 0fbf 79be d1bf 464d 90bf d89d b43e
000000f0: bdde abbe 05ca cebc 1b1e 33bf 7234 71bc
00000100: 6148 3abf 19e0 473f b9c6 c53c e038 a13e
00000110: 216c a93e 21fa 5c3f febc e93d caf3 9abe
00000120: f7c4 ecba 1edc 1fbf 3148 4d3e 1735 d6bc
00000130: d509 043f c53e b93e 9004 5bbe 47db 373f
00000140: 1f23 fcbe b5a5 1d3a 2d91 12bf 9616 213f
00000150: a571 eebd dfcb 21be 8a3f 00bf af6b 43be
00000160: af41 52bd 57fb 2a3f ee4d 163e 2bf6 af3d
00000170: 63c3 3f3d f6db 873f 972a 1b3f 1d18 6dbf
00000180: ad3c d53e 9cf3 5d3e 25d2 e33d 19de 4dbf
00000190: 076b a7bd d7e3 733f b974 55bf 5aee 59bf
000001a0: 2da9 f4b9 6c47 0bbd 8e77 453f 0e07 f53d
000001b0: c541 973e d579 123f e532 e6be 185a a53f
000001c0: 354a 1f3f fb0d 80bf 0d74 76be 980e 1ebe
000001d0: 2f0f 4cbf 2ee7 ffbe 7a40 4b3f 7a03 91bc
000001e0: a96a bbbe 1e3b b33c 0f8e 4bbe d8b4 2fbf
000001f0: 05d0 afbe 3990 9fbd 7eb2 15be 1de1 853e
00000200: 29a0 eebe 53e0 10be b147 0f3d 124c c13e
00000210: a5fd ec3e 391a 8a3e a5ee f43c e32b f23e
00000220: 4654 e6bd 2fb7 373f f7bd 753e 0766 17bd
00000230: d936 67bf 2639 473e 1301 fe3e 503b 0cbe
00000240: b3fa d8bd ee71 283f 8761 c83d 12d4 363d
00000250: dfca fbbe 2f13 943e 70dc 0dbe 7d30 613e
00000260: 1001 993e 3ed0 9bbe 6ebf fcbd 64b8 0abf
00000270: 49f3 a63c ef6d 473f 1f98 abbd fd48 a93e
00000280: 87a5 c63e 2dfd e43e 6860 823e f09e 143e
00000290: 234e a6be f4b3 65be f965 78bf ec8c 8abf
000002a0: 312f df3e 2ef3 c03e 4864 593f 7928 c3bd
000002b0: d64c b4b9 0f12 acbe 7f0e 2abc 4d15 293e
000002c0: 0e1e f8bd 8c6e 1abe 555c 0cbf 8563 38be
000002d0: 0a38 dbbe 54b1 223f ee1c 1cbf 2af2 40be
000002e0: 919c f0be e9ae 1e3f 224e 5e3f 40ef d1be
000002f0: 3ef2 253f 3322 ef3e bf65 bc3e 64c1 713f
00000300: 5234 e33e 6660 0dbf 090f 993e c7a4 bf3d
00000310: fd6d a13e 721c 183f e413 18bf e308 f33d
00000320: f299 78be 8385 b83e a431 d4be ae34 cdbc
00000330: 9a24 b13d 46ce 9d3e 0099 d83d 7220 693e
00000340: e37d 35bf e6df 00be e2e3 2d3e 8a36 80be
00000350: 4e5f 903c f754 95bd 6a7d 783e 0f6e 943e
00000360: 48b2 0e3e a4a5 f83e 369a abbe fea2 67bf
00000370: 0990 333f 9df7 acbd 6195 91be 4c92 dcbe
00000380: 9f15 17bf 4ee0 383f 0ab6 b13e 87b2 b93e
00000390: faec 0ebf 25f6 33be 00a2 893f 7d6d c33e
000003a0: 8413 79bb d959 a9bd 1059 25bc 4a9d dd3e
000003b0: 3ba8 60be 128c 1cbf ea08 f0bd 1241 2d3e
000003c0: 3d63 2bbf 055c 893e 67c6 4fbe 92ed 363f
000003d0: ac6f 253c 0ab1 3a3f 1bdc e73e b705 93be
000003e0: 8c29 893e f02b 4c3e 07b5 37bf ee75 473f
000003f0: 7d8d b63e b623 a0be c452 0ebe 6e96 123d

lstm.bias_ih_l0 f4 [512]
0.07595714 -0.29497692 -0.25003487 -0.13279584 -0.31141782 -0.13481978 -0.20986329 -0.24231215
0.23878196 -0.15687208 -0.8712285 -0.15500948 -0.50876355 0.023706028 -0.010601057 -0.41634172
-0.031181285 -0.1798813 -0.09585576 0.017267643 -0.38382223 -0.3969543 -0.38243675 -0.24063347
-0.248285 0.05349552 -0.17718378 -0.118310586 0.06069608 -0.09331445 -0.38138947 -0.55536395
-0.16934313 -0.47915006 0.107410386 0.25911486 0.10593363 -0.056401294 -0.12185586 -0.2406505
0.28711754 0.23176369 0.14677484 -0.33070296 -0.062487364 -0.0951018 0.0941971 -0.47437346
-0.5093248 -0.08238665 0.4435179 -0.1077938 0.19477156 -0.050665483 -0.40543383 0.02316508
-0.21947888 -0.079746604 -0.07912722 -0.6007628 0.11886199 -0.005352918 -0.08279197 -0.17322522
0.22371435 0.26351023 0.4752101 -0.0106684705 0.1828829 0.13984986 -0.3668094 0.24251379
0.007363164 -0.06339139 -0.11234144 -0.0618785 -0.18067877 0.24163622 0.18744572 -0.21210442
-0.1710176 -0.26452777 -0.30166426 -0.09627123 -0.091529846 -0.2132496 -0.102224514 -0.19515133
0.018765634 -0.22641677 -0.12997103 0.0007436749 0.4880145 -0.13252634 -0.24750286 -0.25944686
0.6999735 -0.12818289 0.0761635 -0.102040924 -0.044681363 -0.423692 0.033043418 -0.11338004
-0.25470015 -0.21083105 0.1595972 -0.30646834 -0.017792726 -0.037919503 -0.02068506 -0.30954638
-0.11862913 -0.036561478 -0.051323537 -0.11289476 -0.066449806 -0.0683687 -0.19921556 0.19215786
-0.58269066 -0.10169602 -0.27935183 -0.3677641 -0.16534859 -0.2388247 -0.21014874 0.1918423
0.22208513 0.092999816 0.14772953 0.08110373 -0.20298816 0.18815067 -0.15989222 -0.3340983
0.29243216 -0.43834946 -0.034343068 -0.4081515 -0.41161102 -0.20798552 0.0075705904 -0.46385118
-0.53348976 -0.012522167 -0.24920632 0.06448842 -0.49961758 0.105753 0.10014678 0.25288543
0.3104239 -0.086764984 0.2485588 -0.1499101 0.0140107265 -0.122136906 0.08531242 0.058996122
-0.08106451 -0.14856704 0.08473947 -0.016083864 0.021396412 0.3650778 -0.15264669 -0.082126945
0.13028318 0.30683914 0.37844956 -0.08039289 0.16075644 -0.054511476 -0.27204755 -0.72771776
-0.16511513 -0.30603647 0.089812435 0.13305101 -0.14771801 -0.06197891 -0.27743497 0.23490167
-0.4710584 -0.07393146 -0.227709 -0.1395833 0.14742757 0.15725233 -0.31158113 -0.2336395
0.19317201 0.32773846 0.282446 -0.19211106 0.22412163 0.28176042 -0.30570632 0.17044315
-0.036372263 0.052693047 0.28800875 0.01841934 -0.07316446 -0.06569576 0.3021833 -0.4023684
-0.2518314 -0.29953003 -0.34039643 -0.08840091 -0.33428878 -0.26114884 0.06812176 0.26880664
0.14710501 -0.103233345 -0.12499275 -0.0048145074 0.22301133 -0.22367013 -0.19251515 -0.05406629
0.3286538 -0.33174843 -0.08593576 0.13512672 -0.06855588 -0.4068128 0.04011857 -0.23223814
0.15464249 0.12497817 0.12095128 -0.26574463 -0.36283186 -0.1617278 -0.37161666 0.013940885
0.13928257 -0.2603774 -0.26487333 0.030832892 0.23661643 0.039806984 0.057973385 0.098143995
-0.22040746 -0.39645335 -0.16159324 0.024663638 -0.11813427 -0.21232025 0.07129593 -0.1459109
00000000: 6b8f 9b3d 3707 97be 9204 80be a2fb 07be
00000010: 2872 9fbe 320e 0abe 67e6 56be ad20 78be
00000020: 4283 743e 13a3 20be d508 5fbf ceba 1ebe
00000030: 543e 02bf 2533 c23c 0eb0 2dbc be2a d5be
00000040: e56f ffbc ce32 38be 0650 c4bd df74 8d3c
00000050: 5984 c4be 983d cbbe c0ce c3be 9f68 76be
00000060: 6c3e 7ebe 1e1e 5b3d aa6f 35be d24c f2bd
00000070: 749c 783d a51b bfbd 7b45 c3be 552c 0ebf
00000080: 4968 2dbe 2853 f5be faf9 db3d b4aa 843e
00000090: bbf3 d83d 0b05 67bd 918f f9bd 166d 76be
000000a0: 1201 933e 7653 6d3e 254c 163e e651 a9be
000000b0: c0f2 7fbd bcc4 c2bd 69ea c03d 14e1 f2be
000000c0: 1c63 02bf 55ba a8bd c714 e33e ffc2 dcbd
000000d0: 3272 473e 9c86 4fbd 0695 cfbe b2c4 bd3c
000000e0: 12bf 60be 3052 a3bd 740d a2bd 97cb 19bf
000000f0: ea6d f33d 8867 afbb d68e a9bd f461 31be
00000100: 6015 653e d0ea 863e bd4e f33e cfca 2ebc
00000110: a845 3b3e cd34 0f3e 71ce bbbe 8955 783e
00000120: b246 f13b 58d3 81bd 4513 e6bd 4f74 7dbd
00000130: db03 39be 7c6f 773e c5f1 3f3e e731 59be
00000140: 3d1f 2fbe 2f70 87be bd73 9abe da29 c5bd
00000150: 0074 bbbd 1a5e 5abe 165b d1bd c0d5 47be
00000160: 63ba 993c ccd9 67be 2017 05be 2df3 423a
00000170: 09dd f93e fcb4 07be 6471 7dbe 38d6 84be
00000180: 7731 333f 6042 03be 9cfb 9b3d d5fa d0bd
00000190: ce03 37bd 28ee d8be 8958 073d cb33 e8bd
000001a0: 0f68 82be 18e4 57be 736d 233e 6be9 9cbe
000001b0: 0dc2 91bc 7b51 1bbd b773 a9bc dd7c 9ebe
000001c0: d4f3 f2bd 7dc1 15bd a138 52bd 5e35 e7bd
000001d0: d616 88bd e404 8cbd 2aff 4bbe 08c5 443e
000001e0: 372b 15bf 0146 d0bd 3407 8fbe 934b bcbe
000001f0: 2451 29be 768e 74be 3b31 57be 4f72 443e
00000200: 496a 633e b076 be3d 6946 173e b619 a63d
00000210: 21dc 4fbe 92aa 403e c9ba 23be ef0e abbe
00000220: abb9 953e 576f e0be 51ab 0cbd 3cf9 d0be
00000230: aebe d2be 28fa 54be b712 f83b e77d edbe
00000240: c992 08bf c629 4dbc f12f 7fbe 8112 843d
00000250: e0cd ffbe 0795 d83d c119 cd3d 337a 813e
00000260: e2ef 9e3e d7b1 b1bd 3386 7e3e 0982 19be
00000270: 3f8d 653c ea22 fabd 47b8 ae3d eba5 713d
00000280: 2605 a6bd f521 18be e38b ad3d 4fc2 83bc
00000290: 8747 af3c 7aeb ba3e 6a4f 1cbe 2c32 a8bd
000002a0: f468 053e 051a 9d3e 24c4 c13e 07a5 a4bd
000002b0: 569d 243e 6d47 5fbd d149 8bbe b64b 3abf
000002c0: f113 29be d0b0 9cbe 95ef b73d 863e 083e
000002d0: 6443 17be 99dd 7dbd f50b 8ebe 108a 703e
000002e0: 912e f1be 6169 97bd 8c2c 69be edee 0ebe
000002f0: 41f7 163e c106 213e 9087 9fbe 313f 6fbe
00000300: e2ce 453e 56cd a73e c39c 903e c3b8 44be
00000310: 2480 653e e742 903e 8a85 9cbe a688 2e3e
00000320: 15fb 14bd aad4 573d e275 933e 28e4 963c
00000330: 40d7 95bd 808b 86bd c5b7 9a3e 3b03 cebe
00000340: 0cf0 80be 005c 99be 7148 aebe 890b b5bd
00000350: e627 abbe 4db5 85be 6c83 8b3d 06a1 893e
00000360: b2a2 163e 016c d3bd 33fc ffbd 04c3 9dbb
00000370: 155d 643e c809 65be b122 45be 9d74 5dbd
00000380: 5045 a83e eeda a9be 16ff afbd a95e 0a3e
00000390: 0667 8cbd c449 d0be 5f53 243d d6cf 6dbe
000003a0: 9a5a 1e3e 8ef4 ff3d 4eb5 f73d ae0f 88be
000003b0: 19c5 b9be f99b 25be 8a44 bebe 4f68 643c
000003c0: 17a0 0e3e 3050 85be 7a9d 87be 4395 fc3c
000003d0: 944b 723e a60c 233d 8075 6d3d b8ff c83d
000003e0: 7eb2 61be effb cabe b378 25be 660b ca3c
000003f0: 61f0 f1bd 7b6a 59be 9a03 923d ab69 15be

lstm.bias_hh_l0 f4 [512]
0.13672598 -0.43083814 -0.14539647 0.004701885 -0.2975934 -0.15065555 -0.28178096 -0.35882133
0.15271874 -0.25200233 -0.81167215 -0.11960453 -0.4987429 -0.06459068 -0.14119051 -0.33932638
-0.097604215 -0.21788733 -0.07769557 0.11980375 -0.22946858 -0.45027366 -0.3868628 -0.31415007
-0.22685477 -0.055747837 -0.12443078 -0.10352256 0.18224926 -0.14705324 -0.3458039 -0.55218726
-0.19436698 -0.45604888 0.054430425 0.22070956 0.08362959 0.026431825 -0.15465938 -0.38141727
0.33826426 0.20620245 0.19064525 -0.34571758 0.01821158 -0.16871592 0.082784496 -0.56317616
-0.4160538 -0.09838089 0.5506082 -0.12567118 0.14788106 0.069454625 -0.3842625 0.06384607
-0.2495363 -0.11481224 0.021844305 -0.5989564 0.084946096 0.084807724 -0.06936191 -0.30878246
0.13317192 0.29403734 0.5265694 0.03204429 0.12256667 0.15583381 -0.43467006 0.17123365
-0.007507626 -0.023240538 -0.10241093 -0.07166283 -0.21021473 0.23589712 0.16952075 -0.16873422
-0.19151141 -0.23301482 -0.27984804 -0.23257168 -0.08132123 -0.20784484 -0.077058546 -0.17532332
0.1409676 -0.16096085 -0.14559805 -0.03243811 0.51815873 -0.13086398 -0.21602799 -0.32881987
0.59753776 -0.1814662 0.14338931 -0.10167985 0.047812074 -0.49203548 0.06963201 -0.11771344
-0.26744103 -0.3156224 0.087714724 -0.17756563 -0.08890138 -0.11652588 0.10504284 -0.20107046
-0.03287156 0.003579309 -0.08917026 0.017222678 -0.11387457 -0.019019056 -0.11030562 0.31650573
-0.50766814 -0.21636423 -0.2605086 -0.27919257 -0.14577226 -0.10497946 -0.34473288 0.116811536
0.061774943 0.14782442 0.13251778 0.059307344 -0.23939608 0.23571481 -0.21352579 -0.2693573
0.1779971 -0.37417787 0.069933504 -0.512606 -0.28659198 -0.23485582 -0.060155034 -0.4556482
-0.5232024 -0.09138806 -0.18628854 0.092497565 -0.41458914 0.1476146 0.013304513 0.17463592
0.17115714 -0.14461008 0.14269476 -0.14778994 -0.0024755343 -0.18074197 0.10634802 0.0036421162
-0.09228839 -0.21277781 -0.043546278 -0.067412175 0.06983285 0.23623767 -0.07696971 -0.010925817
0.16015637 0.34118107 0.28209263 -0.17278476 0.1417694 -0.053432275 -0.21849392 -0.69700897
-0.17307623 -0.3014028 -0.027328242 0.13320999 -0.1782041 -0.007818435 -0.25858596 0.22120833
-0.4051999 -0.15034056 -0.19519114 -0.13584195 0.1562122 0.18559352 -0.3338589 -0.15567121
0.1115388 0.32364675 0.28088218 -0.22781806 0.17105901 0.26308477 -0.27772245 0.1871298
0.0032268965 0.09623301 0.265993 0.0911446 -0.1569903 -0.12949489 0.302819 -0.35817152
-0.12320752 -0.3278996 -0.19459447 -0.033029273 -0.4173792 -0.23982073 -0.034507897 0.3074894
0.11177766 -0.021876883 -0.19986005 -0.068206824 0.20772025 -0.37326798 -0.2163079 0.012277162
0.43594152 -0.4440108 -0.07403582 0.10843975 -0.13002989 -0.4457284 0.08637824 -0.21572183
0.09656051 0.08376971 0.0071862713 -0.2697114 -0.29520085 -0.12427696 -0.35170233 -0.009333194
0.11424814 -0.16498141 -0.22029656 0.012650353 0.33858812 0.023163421 0.11510616 0.14843296
-0.25561348 -0.45328012 -0.08408039 0.19038557 0.0021451886 -0.15666695 -0.07604764 0.013240443
00000000: e501 0c3e d196 dcbe d0e2 14be 4512 9a3b
00000010: 2a5e 98be 7345 1abe 9845 90be 6eb7 b7be
00000020: 4d62 1c3e 7306 81be bfc9 4fbf 38f3 f4bd
00000030: 3b5b ffbe 1e48 84bd 3f94 10be 30bc adbe
00000040: b8e4 c7bd db1d 5fbe db1e 9fbd ab5b f53d
00000050: d0f9 6abe 458a e6be e212 c6be 47d8 a0be
00000060: 9e4c 68be d857 64bd 91d5 febd a303 d4bd
00000070: 8d9f 3a3e 2095 16be 350d b1be 255c 0dbf
00000080: 2308 47be 3d7f e9be 70f2 5e3d b001 623e
00000090: fe45 ab3d 8e87 d83c 075f 1ebe 2049 c3be
000000a0: f930 ad3e bc26 533e 8238 433e e501 b1be
000000b0: 7430 953c dec3 2cbe eb8a a93d 502c 10bf
000000c0: 0105 d5be ec7b c9bd a9f4 0c3f f2af 00be
000000d0: 226e 173e 3a3e 8e3d 0ebe c4be bac1 823d
000000e0: 7286 7fbe ae22 ebbd d4f2 b23c 3555 19bf
000000f0: 38f8 ad3d acaf ad3d 9e0d 8ebd bc18 9ebe
00000100: 385e 083e 108c 963e 41cd 063f e040 033d
00000110: 3c04 fb3d e692 1f3e 138d debe e057 2f3e
00000120: 8802 f6bb f162 bebc d2bc d1bd f6c3 92bd
00000130: 8842 57be 048f 713e d996 2d3e aac8 2cbe
00000140: 911b 44be 709b 6ebe 3e48 8fbe 4527 6ebe
00000150: bf8b a6bd 47d5 54be dfd0 9dbd f587 33be
00000160: cf59 103e ecd2 24be a817 15be d3dd 04bd
00000170: 0da6 043f 3501 06be 7136 5dbe 145b a8be
00000180: 3cf8 183f 47d2 39be a6d4 123e 863d d0bd
00000190: 98d6 433d 13ec fbbe 3a9b 8e3d be13 f1bd
000001a0: 08ee 88be 4299 a1be c7a3 b33d c4d3 35be
000001b0: ed11 b6bd 1fa5 eebd b320 d73d 6ae5 4dbe
000001c0: 54a4 06bd d792 6a3b e69e b6bd 9316 8d3c
000001d0: 1237 e9bd dacd 9bbc eae7 e1bd 0a0d a23e
000001e0: 8af6 01bf 968e 5dbe 6261 85be 54f2 8ebe
000001f0: 5345 15be 79ff d6bd d480 b0be e33a ef3d
00000200: b907 7d3d 495f 173e beb2 073e 42ec 723d
00000210: 3f24 75be 395f 713e 81a6 5abe 33e9 89be
00000220: df44 363e 3e94 bfbe 4c39 8f3d 263a 03bf
00000230: 2fbc 92be 0b7e 70be 2065 76bd b94a e9be
00000240: 98f0 05bf aa29 bbbd 6cc2 3ebe 5d6f bd3d
00000250: 0745 d4be 4828 173e 2cfb 593c c2d3 323e
00000260: d143 2f3e aa14 14be 931e 123e 3f56 17be
00000270: 933c 22bb 6c14 39be fecc d93d 92b0 6e3b
00000280: b201 bdbd 6de2 59be 955d 32bd 650f 8abd
00000290: 8604 8f3d 4ae8 713e 4ca2 9dbd 3302 33bc
000002a0: 0800 243e 49af ae3e 726e 903e 7dee 30be
000002b0: ff2b 113e cddb 5abd dfbc 5fbe 2e6f 32bf
000002c0: e53a 31be 7851 9abe 7adf dfbc 3368 083e
000002d0: 237b 36be e518 00bc 6165 84be 7084 623e
000002e0: 5c76 cfbe e0f2 19be 30e0 47be 271a 0bbe
000002f0: 17f6 1f3e 3a0c 3e3e 8eef aabe 4668 1fbe
00000300: 746e e43d 07b5 a53e cacf 8f3e 2349 69be
00000310: 182a 2f3e 0cb3 863e a331 8ebe f49e 3f3e
00000320: 577a 533b d015 c53d 3c30 883e 05aa ba3d
00000330: 11c2 20be 4f9a 04be 180b 9b3e 4262 b7be
00000340: 3954 fcbd 75e2 a7be c643 47be b449 07bd
00000350: bab2 d5be 9193 75be 2758 0dbd 406f 9d3e
00000360: b0eb e43d 2637 b3bc 1da8 4cbe 05b0 8bbd
00000370: 9eb4 543e fb1c bfbe d17f 5dbe 2626 493c
00000380: ba33 df3e 6255 e3be 18a0 97bd a915 de3d
00000390: 8e26 05be 8336 e4be 13e7 b03d 2fe6 5cbe
000003a0: 84c1 c53d 748f ab3d d07a eb3b 9d17 8abe
000003b0: 9124 97be eb84 febd 5412 b4be 41ea 18bc
000003c0: eefa e93d e3f0 28be 6c95 61be 6d43 4f3c
000003d0: 6c5b ad3e 37c1 bd3c c7bc eb3d cffe 173e
000003e0: c5df 82be 5514 e8be 5732 acbd 6ff4 423e
000003f0: 4b96 0c3b 4d6d 20be ddbe 9bbd 71ee 583c

lstm.weight_ih_l1 f4 [512, 128]
-0.10216557 0.23487315 -0.64281356 -0.1888232 0.59621525 -0.46653324 0.31053293 -0.24417642
0.46336603 0.14762329 -0.3715393 -0.09580491 -0.14427064 -0.12735696 0.30561912 -0.43732733
-0.11799157 0.22201063 -0.55884075 0.038710553 -0.22820973 -0.24856707 -0.061529912 -0.10592205
0.49780735 0.61073613 1.0029889 0.4999974 -0.42402792 -0.41820815 -0.2361531 0.0129133435
0.3982495 0.54064834 0.788137 0.044588685 0.053457357 -0.36144057 -0.1904455 0.42229727
1.011248 1.445429 -0.45187506 -0.35014674 -0.43067798 0.39883855 0.0074855755 -0.0033851517
0.41932666 0.4324847 -0.38794667 0.4661446 0.074989244 -0.29957572 0.14506495 -0.545796
0.38476574 0.27922308 -0.30293626 0.21342415 0.22504714 -0.053897496 -0.03896808 -0.24354474
-0.8695032 0.51591736 -0.5725509 0.16173756 -0.020793712 0.11829889 -0.23025821 -0.21894148
0.19353902 0.1959387 0.01651127 0.23964329 0.31515667 -0.11635595 0.077866115 0.8108302
0.12546214 -0.27700448 0.0010077803 0.4702102 0.3683411 -0.33612055 -0.36566323 -0.03847309
0.4790502 -0.34165907 -0.44791242 0.7452513 -0.55946815 -0.11408978 0.58484375 -0.18143696
0.5895492 0.079681054 0.051921647 -0.56885785 -0.6757128 0.5114007 0.4331279 0.37435967
0.06905589 -0.17891575 0.5031517 0.3017135 0.022312319 0.19879076 -0.32783216 -0.2752326
-0.010000795 -0.074488945 -0.2724953 -0.07013863 0.33190203 0.14141998 -0.442059 -0.34905297
-0.04951367 0.23374714 -0.7644632 -0.09583495 -0.09238385 0.23944736 -0.08294931 -0.63807446
-0.019054864 -0.023644596 0.24313705 0.5774285 -0.22903767 -0.034169972 0.028635217 -0.11077377
-0.25353855 -0.53677654 -0.050571937 -0.023045273 0.8866629 -0.15624595 -0.80324596 0.7265603
0.38071066 -0.8810953 0.30729428 -0.24029492 0.058357835 0.10122323 -0.38359618 -0.06420922
-0.30831644 -0.1167897 -0.25211695 -0.16934177 0.003467641 -0.13589808 0.004173971 0.47213766
0.031411406 -0.30351543 0.034818795 -0.5521242 -0.15915269 -0.7563345 -0.065111846 -0.6844663
-0.17513528 0.008900105 0.8060216 -0.37662637 0.5480076 -0.21597488 0.31949908 0.04363607
0.15939958 -0.1801673 -0.5268511 -0.41401225 0.44500008 0.4783199 0.08899261 0.43312022
0.2823254 0.49832422 0.12908684 -0.02094632 -0.23878795 0.2665213 0.628501 -0.24673572
0.503367 -0.882201 0.3232289 -0.11903605 0.063898265 0.07131053 0.6874225 0.09468439
-0.022379067 -0.27358553 0.5057426 0.85332716 0.16505794 0.3477217 0.33520856 0.09834624
-0.25799575 0.4027326 -0.037270345 0.19079456 -0.0672909 0.33481827 -0.4574726 -0.13383849
0.0069857193 0.49925593 -0.33187312 0.3324454 0.72550154 -0.02072812 -0.11643019 -0.586811
-0.40109622 -0.031118272 0.60621834 0.3226879 -0.022345591 -0.16371638 -0.74562204 -0.97599757
-0.23577352 -0.9644805 -0.19359817 -0.24581523 -0.51365536 0.27766278 0.51823676 -0.37985998
0.39994538 -0.37392384 0.49102497 -0.07174347 0.23562555 0.48635638 -0.32680196 0.10014091
0.1313056 -0.17764877 -0.3927422 0.047052264 -0.7814509 -0.45528603 -0.27848282 0.24511062
00000000: 2f3c d1bd 9682 703e 6e8f 24bf de5a 41be
00000010: 90a1 183f 72dd eebe 2cfe 9e3e 6209 7abe
00000020: 503e ed3e 8f2a 173e 663a bebe 5d35 c4bd
00000030: afbb 13be dd69 02be 1c7a 9c3e 5ee9 dfbe
00000040: 90a5 f1bd c156 633e 3010 0fbf f58e 1e3d
00000050: d0af 69be 5e88 7ebe ca06 7cbd a9ed d8bd
00000060: 9be0 fe3e 3459 1c3f f161 803f a9ff ff3e
00000070: 301a d9be 611f d6be 1ed2 71be 7d92 533c
00000080: 5ce7 cb3e ee67 0a3f 59c3 493f a0a2 363d
00000090: 1af6 5a3d bd0e b9be 2504 43be 5937 d83e
000000a0: 9370 813f d103 b93f 2b5c e7be 6f46 b3be
000000b0: d381 dcbe 9134 cc3e 8f49 f53b 6cd9 5dbb
000000c0: fcb1 d63e a26e dd3e f2a0 c6be 81aa ee3e
000000d0: f693 993d fd61 99be e88b 143e 49b9 0bbf
000000e0: 0400 c53e 54f6 8e3e 761a 9bbe dc8b 5a3e
000000f0: c272 663e 9fc3 5cbd fe9c 1fbd cb63 79be
00000100: c397 5ebf 2913 043f b292 12bf 889e 253e
00000110: 9357 aabc b046 f23d cfc8 6bbe 3232 60be
00000120: 182f 463e 28a4 483e a542 873c 0d65 753e
00000130: 375c a13e 074c eebd 4578 9f3d 9192 4f3f
00000140: 2679 003e 88d3 8dbe 7f17 843a 64bf f03e
00000150: 3497 bc3e fe17 acbe 3638 bbbe f595 1dbd
00000160: 1146 f53e f0ed aebe c754 e5be cac8 3e3f
00000170: 4e39 0fbf e7a7 e9bd 52b8 153f 9cca 39be
00000180: b2ec 163f d22f a33d cbab 543d aba0 11bf
00000190: 84fb 2cbf 28eb 023f f1c2 dd3e 12ac bf3e
000001a0: 2d6d 8d3d b135 37be 8dce 003f 317a 9a3e
000001b0: 53c8 b63c ce8f 4b3e 9ed9 a7be 4aeb 8cbe
000001c0: 60da 23bc a98d 98bd 8184 8bbe d8a4 8fbd
000001d0: 10ef a93e 66d0 103e 8f55 e2be 12b7 b2be
000001e0: d9ce 4abd 695b 6f3e dcb3 43bf 1d45 c4bd
000001f0: be33 bdbd b031 753e 54e1 a9bd d958 23bf
00000200: f218 9cbc 50b2 c1bc ebf8 783e 5bd2 133f
00000210: da88 6abe d0f5 0bbd 6794 ea3c 5cdd e2bd
00000220: cecf 81be 306a 09bf 8524 4fbd 71c9 bcbc
00000230: 57fc 623f f0fe 1fbe 87a1 4dbf dbff 393f
00000240: 82ec c23e 768f 61bf ad55 9d3e df0f 76be
00000250: a008 6f3d 204e cf3d b866 c4be 2080 83bd
00000260: a7db 9dbe 702f efbd 7915 81be ee67 2dbe
00000270: 5d41 633b de28 0bbe cec5 883b 07bc f13e
00000280: 3fa9 003d 6066 9bbe 279e 0e3d 0358 0dbf
00000290: ecf8 22be 239f 41bf 5c59 85bd 2f39 2fbf
000002a0: aa56 33be bfd1 113c 6e57 4e3f 2cd5 c0be
000002b0: 3a4a 0c3f 8528 5dbe 6295 a33e bcbb 323d
000002c0: a539 233e c77d 38be b7df 06bf 6af9 d3be
000002d0: 0dd7 e33e 59e6 f43e c241 b63d efc1 dd3e
000002e0: f48c 903e 5a24 ff3e 572f 043e 9e97 abbc
000002f0: d484 74be 7b75 883e 71e5 203f 4aa8 7cbe
00000300: a9dc 003f edd7 61bf 427e a53e 2cc9 f3bd
00000310: 18dd 823d 410b 923d ecfa 2f3f e4e9 c13d
00000320: 4e54 b7bc 6713 8cbe 5978 013f a673 5a3f
00000330: f304 293e 9408 b23e 75a0 ab3e c169 c93d
00000340: 0518 84be f832 ce3e caa8 18bd a65f 433e
00000350: d0cf 89bd 4d6d ab3e d939 eabe f50c 09be
00000360: 76e8 e43b 799e ff3e 46eb a9be 4936 aa3e
00000370: 78ba 393f 05ce a9bc f472 eebd 3f39 16bf
00000380: 7c5c cdbe bfeb febc 2031 1b3f 5937 a53e
00000390: 1a0e b7bc 44a5 27be 16e1 3ebf fada 79bf
000003a0: 9d6e 71be 32e8 76bf 993e 46be fdb6 7bbe
000003b0: eb7e 03bf d129 8e3e 2aab 043f 027d c2be
000003c0: a4c5 cc3e f272 bfbe a067 fb3e 3eee 92bd
000003d0: d347 713e b403 f93e 9652 a7be ad16 cd3d
000003e0: fa74 063e 8fe9 35be 8115 c9be e0b9 403d
000003f0: 2b0d 48bf 401b e9be 4d95 8ebe 47fe 7a3e

lstm.weight_hh_l1 f4 [512, 128]
0.49883583 0.25095546 -0.043872945 -0.27000406 0.15548848 -0.046095956 0.3038078 -0.051113244
0.115893885 -0.032665282 0.043862823 -0.564191 0.1843043 0.017671432 0.1822112 0.032135267
-0.07559024 0.21611153 -0.06868322 -0.27176684 -0.2503384 0.18278164 0.050648563 -0.1553379
-0.05418128 -0.35188335 -0.12673844 -0.19103059 0.70952433 0.013954594 -0.33664888 -0.15726976
-0.05325944 -0.08475108 -0.15994702 -0.29597664 -0.3646648 -0.16738135 -0.15087979 0.04897631
0.023414636 0.12930313 -0.2838472 0.19817762 0.27914217 0.00067282195 0.40511605 -0.05226167
0.08509388 -0.20014152 -0.241954 -0.07258653 -0.1526012 -0.23456426 -0.094816305 -0.04103947
0.29062492 -0.25468382 -0.010957799 -0.055022355 0.67241037 -0.05322672 -0.3065751 -0.31934637
-0.32777348 0.08156662 -0.28447366 0.49621043 0.12078461 0.870216 -0.38121507 0.16160697
-0.045738 0.38078773 -0.3147039 0.39502284 0.35649318 0.27461132 -0.03017335 -0.38543606
-0.11554646 0.79458654 -0.17886212 0.20069252 -0.08207005 -0.33115372 -0.18567044 -0.5330847
0.2701305 -0.44379723 0.61149895 0.118290015 0.0038132512 -0.15194505 0.50752074 -0.15065376
0.17773801 0.061005384 -0.5171399 0.4135725 0.37306678 0.1226924 0.23704769 -0.06813453
0.06754375 -0.055329118 -0.16045149 0.14931245 0.004711254 0.13839006 0.010906869 0.21833563
0.7150205 0.22490494 0.65258795 -0.21753147 0.6231302 0.46431863 0.33303988 -0.4320447
-0.5534743 -0.25924003 -0.2043937 0.4165328 0.16886358 -0.17158876 -0.28984988 -0.06893913
-0.23452924 0.30365604 -0.34974703 -0.16866766 -0.45052767 -0.087966286 0.3436467 0.012660813
0.5088151 -0.237724 0.0613418 -0.060933597 -0.12947284 0.3622025 0.06947295 -0.45596382
0.3296955 0.03656637 0.42510444 -0.038004182 0.1175392 0.19679946 -0.2097129 -0.16325799
-0.2914151 -0.104778595 -0.34413263 0.34084502 0.0665972 -0.35095108 0.052717555 0.22075264
0.37161165 -0.11714698 -0.101422094 -0.1442577 -0.042340197 0.06054474 0.47993085 0.11083376
0.86593825 -0.5903854 -0.30442598 0.34908485 0.1087908 0.29375106 -0.12212138 0.04873738
0.07429037 -0.18819971 -0.13614348 -0.11048534 0.1910622 0.42614427 -0.15118565 0.09273778
0.37705064 0.13050629 0.31179896 -0.06086836 0.62372386 -0.4851502 0.2975654 -0.35541627
-0.59194636 -0.14866534 -0.030358544 0.3505753 0.015126287 -0.20721841 0.3484369 0.6379188
0.10555914 0.121291235 0.32994267 -0.07280253 0.550023 0.080747455 -0.17217635 -0.17230129
-0.044429686 0.24215831 -0.14909822 0.40409344 -0.5006298 -0.26823443 -0.3111216 -0.18336861
0.5387003 0.21246739 0.18293904 0.5854834 -0.1502138 -0.43571395 -0.00018672697 -0.05109419
0.17614093 -0.49867576 -0.2205046 -0.11156311 0.054042313 -0.23784217 -0.4487496 -0.38527676
0.065332144 0.23240754 -0.65727323 0.21203412 0.04945915 0.5278834 -0.30219576 -0.12049274
-0.24453205 0.039055042 0.08687293 -0.49942288 0.12618083 -0.04189507 0.002269859 -0.686823
-0.054898143 0.11608719 0.2804932 0.2135902 -0.41712976 -0.0019279732 0.37715152 -0.28249568
00000000: 6967 ff3e 3c7d 803e 1eb4 33bd f93d 8abe
00000010: 5f38 1f3e 1dcf 3cbd b28c 9b3e 1f5c 51bd
00000020: c659 ed3d 08cc 05bd 81a9 333d d26e 10bf
00000030: 44ba 3c3e aec3 903c 9395 3a3e 45a0 033d
00000040: 0ecf 9abd 574c 5d3e caa9 8cbd 0625 8bbe
00000050: 5b2c 80be 1c2b 3b3e de74 4f3d e610 1fbe
00000060: 31ed 5dbd 0e2a b4be b9c7 01be 869d 43be
00000070: 63a3 353f cfa1 643c 3e5d acbe 530b 21be
00000080: 9226 5abd f991 adbd 27c9 23be 408a 97be
00000090: 58b5 babe 0466 2bbe 3b80 1abe 629b 483d
000000a0: 0dd0 bf3c 0a68 043e 6c54 91be 13ef 4a3e
000000b0: b9eb 8e3e 5160 303a 5f6b cf3e 5510 56bd
000000c0: b345 ae3d e6f1 4cbe cac2 77be 3fa8 94bd
000000d0: 7d43 1cbe 9d31 70be 0d2f c2bd 0119 28bd
000000e0: cacc 943e eb65 82be 5788 33bc 1f5f 61bd
000000f0: 1623 2c3f 4304 5abd 69f7 9cbe 5e81 a3be
00000100: edd1 a7be 660c a73d 88a6 91be 4b0f fe3e
00000110: ec5d f73d 7ac6 5e3f 9f2e c3be 4c7c 253e
00000120: c557 3bbd 9cf6 c23e df20 a1be 6f40 ca3e
00000130: 4686 b63e db99 8c3e 1a2e f7bc e057 c5be
00000140: 9fa3 ecbd 066a 4b3f a227 37be 5782 4d3e
00000150: 5814 a8bd fb8c a9be 6420 3ebe 3d78 08bf
00000160: 8b4e 8a3e 6439 e3be 328b 1c3f 0942 f23d
00000170: bde7 793b 7c97 1bbe e1ec 013f fb44 1abe
00000180: f400 363e c8e0 793d 4863 04bf c6bf d33e
00000190: 9c02 bf3e 2746 fb3d a1bc 723e 1e8a 8bbd
000001a0: 6154 8a3d c9a0 62bd 654d 24be 5de5 183e
000001b0: dd60 9a3b 20b6 0d3e b9b2 323c 6093 5f3e
000001c0: 950b 373f 7b4d 663e 0110 273f 92c0 5ebe
000001d0: 7685 1f3f 2cbb ed3e 3484 aa3e f734 ddbe
000001e0: 7eb0 0dbf 1cbb 84be 954c 51be ca43 d53e
000001f0: 93ea 2c3e f7b4 2fbe 3467 94be f52f 8dbd
00000200: 6f28 70be ce78 9b3e 0b12 b3be 37b7 2cbe
00000210: 90ab e6be ab27 b4bd 76f2 af3e 4c6f 4f3c
00000220: b541 023f ec6d 73be 8a41 7b3d 8295 79bd
00000230: 8794 04be 9b72 b93e d647 8e3d 1774 e9be
00000240: d9cd a83e 9ec6 153d 4aa7 d93e 46aa 1bbd
00000250: 64b8 f03d cc85 493e fabe 56be 1a2d 27be
00000260: 5c34 95be 2996 d6bd 2732 b0be 3d83 ae3e
00000270: 1d64 883d dcaf b3be 5dee 573d fb0c 623e
00000280: e243 be3e c1ea efbd 63b6 cfbd 4ab8 13be
00000290: ea6c 2dbd c3fd 773d 7fb9 f53e cffc e23d
000002a0: 21ae 5d3f 7f23 17bf b9dd 9bbe 40bb b23e
000002b0: b6cd de3d 8a66 963e c61a fabd d9a0 473d
000002c0: 8d25 983d 6db7 40be 3269 0bbe 2346 e2bd
000002d0: cfa5 433e 952f da3e 69d0 1abe 4eed bd3d
000002e0: c80c c13e 71a3 053e 1da4 9f3e 1a51 79bd
000002f0: 5eac 1f3f 9b65 f8be 7e5a 983e 1ff9 b5be
00000300: cc89 17bf ba3b 18be 7bb2 f8bc 9b7e b33e
00000310: 3fd4 773c 1031 54be 5266 b23e a54e 233f
00000320: 642f d83d 8a67 f83d 3fee a83e 7e19 95bd
00000330: 4fce 0c3f ec5e a53d ff4e 30be c06f 30be
00000340: e7fb 35bd 59f8 773e 34ad 18be 56e5 ce3e
00000350: 4629 00bf 0656 89be 554b 9fbe fbc4 3bbe
00000360: 43e8 093f 0d91 593e 5f54 3b3e 3de2 153f
00000370: a5d1 19be e615 dfbe 24cc 43b9 2448 51bd
00000380: 4a5e 343e 6e52 ffbe f5cb 61be 337b e4bd
00000390: 795b 5d3d e68c 73be 82c2 e5be ff42 c5be
000003a0: dccc 853d 3efc 6d3e 0f43 28bf 791f 593e
000003b0: ad95 4a3d 5e23 073f 67b9 9abe e6c4 f6bd
000003c0: 9c66 7abe 2ef8 1f3d 6fea b13d 5bb4 ffbe
000003d0: 8c35 013e 2a9a 2bbd eac1 143b a2d3 2fbf
000003e0: e0dc 60bd 1fbf ed3d ce9c 8f3e 64b7 5a3e
000003f0: 0892 d5be 0cb4 fcba 011a c13e 46a3 90be

lstm.bias_ih_l1 f4 [512]
-0.68852854 -0.6447355 -0.32605165 -0.55201554 -0.615061 -0.5828858 -0.6859604 -0.23341201
-0.49200708 -0.584336 -0.6677017 -0.518287 -0.538628 -0.5216163 -0.5664184 -0.6023034
-0.5108029 -0.396397 -0.65793735 -0.4273737 -0.38600546 -0.6873433 -0.4771435 -0.40302315
-0.7416221 -0.06363057 -0.39870617 -0.5861662 -0.62724894 -0.6864207 -0.37028438 -0.44510582
-0.34602082 -0.6757339 -0.15516715 -0.12832515 -0.1545867 -0.52188355 -0.44532695 -0.40062964
-0.2273288 -0.5828078 -0.47597128 -0.37726337 -0.49991804 -0.28771555 -0.5928939 -0.7128276
-0.3975526 -0.5303702 -0.29649606 -0.6744672 -0.60639334 -0.52532506 -0.6899657 -0.30942142
-0.65310967 -0.55208606 -0.85283613 -0.5311109 -0.58267564 -0.4236493 -0.2445432 -0.53088784
-0.6524452 -0.51167387 -0.49575874 -0.45994288 -0.3706841 -0.43143 -0.53233653 -0.49147117
-0.6723175 -0.1817078 -0.5571167 -0.66831475 -0.29998213 -0.36708215 -0.574755 -0.2541855
-0.33100957 -0.53966147 -0.70230544 -0.7534588 -0.58712244 -0.59550905 -0.6054954 -0.31957445
-0.5915816 -0.41754195 -0.54627675 -0.40000433 -0.42406017 -0.40518278 -0.3477064 -0.6020071
-0.3413136 -0.63743895 -0.3505903 -0.5971861 -0.31775516 -0.21296753 -0.37632748 -0.61379594
-0.5497519 -0.32126942 -0.34480268 -0.5582375 -0.5999683 -0.5975998 -0.6796684 -0.4370858
-0.5922658 -0.57812184 -0.7880416 -0.4175425 -0.20678934 -0.31412628 -0.26157543 -0.20712617
-0.46429256 -0.59981066 -0.6899438 -0.5642057 -0.587788 -0.19910134 -0.6748907 -0.6083717
-0.2988452 0.32103848 0.055022575 -0.29703408 0.34784952 0.21161121 0.15641178 0.21633445
-0.33031484 0.29048914 0.29352665 0.30080783 0.441108 -0.45675093 0.022570658 0.3690327
0.29474548 -0.15588583 -0.07706308 -0.363406 0.9019408 0.24259429 0.300813 0.40216276
-0.037798844 -0.19017403 0.08871653 0.26839557 0.41633046 0.03468479 -0.023771107 0.20940278
0.52288634 0.38099095 0.23044378 0.05201699 -0.18249542 0.025814446 -0.08252971 -0.039104674
0.21868221 0.1363711 0.35027498 -0.048662808 0.46726874 0.16577697 0.7202447 0.23785824
0.19308256 0.18376464 -0.33226714 0.10962071 -0.071943626 0.21864471 0.5368827 -0.12294369
-0.11256212 0.13039346 0.25973243 -0.20416647 0.5838693 0.066847 0.56495225 0.48241052
0.484229 0.33580336 -0.14008582 0.70301574 -0.309392 -0.31727862 -0.14652996 -0.08051312
0.12007695 -0.09376032 0.25938025 0.39398023 -0.13638705 0.37892354 0.6612817 -0.4297114
0.011260321 0.32981786 0.31881064 0.67432696 -0.31685343 0.43813002 -0.1700048 0.1707355
0.3402557 -0.37451097 0.7480576 0.43192375 0.12545282 0.2651678 0.061830897 0.20764081
0.4776451 0.5446754 0.1212238 0.4336438 0.41831407 0.010505039 -0.00073467236 0.09914074
-0.019733991 0.53585696 -0.20487285 0.004442252 -0.2419102 0.06994526 0.4359229 0.12688419
0.6551753 0.43783188 0.45826977 0.43907678 -0.09373801 -0.0021050961 0.5645292 0.023351826
0.27923727 0.86389446 0.10284015 0.33295664 0.47000957 0.39002982 0.6456845 0.6226331
00000000: 6843 30bf 630d 25bf 3ef0 a6be e450 0dbf
00000010: a374 1dbf 0138 15bf 1a9b 2fbf 8f03 6fbe
00000020: 5ae8 fbbe 0b97 15bf 80ee 2abf 75ae 04bf
00000030: 86e3 09bf a588 05bf cc00 11bf 8e30 1abf
00000040: fbc3 02bf 8cf4 cabe 956e 28bf bad0 dabe
00000050: 82a2 c5be bbf5 2fbf 274c f4be 0d59 cebe
00000060: f2da 3dbf bf50 82bd 3723 ccbe fd0e 16bf
00000070: 6393 20bf 44b9 2fbf ea95 bdbe e9e4 e3be
00000080: a429 b1be e6fc 2cbf 23e4 1ebe ab67 03be
00000090: fa4b 1ebe 299a 05bf e501 e4be 541f cdbe
000000a0: e2c8 68be e432 15bf 82b2 f3be aa28 c1be
000000b0: 42f5 ffbe 744f 93be e5c7 17bf df7b 36bf
000000c0: 048c cbbe 57c6 07bf 55ce 97be e2a9 2cbf
000000d0: 983c 1bbf b47b 06bf 98a1 30bf 7c6c 9ebe
000000e0: 3232 27bf 8355 0dbf 7853 5abf e2f6 07bf
000000f0: 3b2a 15bf 90e8 d8be 8869 7abe 44e8 07bf
00000100: a606 27bf 0ffd 02bf 17d4 fdbe a27d ebbe
00000110: 4eca bdbe 65e4 dcbe 3547 08bf 1ca2 fbbe
00000120: 001d 2cbf 9c11 3abe 339f 0ebf ad16 2bbf
00000130: 4297 99be 31f2 bbbe 2523 13bf 9a24 82be
00000140: 167a a9be 4127 0abf 4aca 33bf ade2 40bf
00000150: a84d 16bf 4873 18bf bf01 1bbf 439f a3be
00000160: e471 17bf 0fc8 d5be cbd8 0bbf 5ecd ccbe
00000170: 6a1e d9be 1e74 cfbe 9306 b2be 231d 1abf
00000180: a8c0 aebe 332f 23bf 9280 b3be 30e1 18bf
00000190: ceb0 a2be 2914 5abe ffad c0be bb21 1dbf
000001a0: 8abc 0cbf 6d7d a4be fa89 b0be a7e8 0ebf
000001b0: 8697 19bf 4dfc 18bf c0fe 2dbf b6c9 dfbe
000001c0: bb9e 17bf cbff 13bf 18bd 49bf 21c8 d5be
000001d0: 96c0 53be 29d5 a0be 37ed 85be e218 54be
000001e0: c1b7 edbe 318d 19bf 28a0 30bf c96f 10bf
000001f0: 4679 16bf 39e1 4bbe a3c5 2cbf 3fbe 1bbf
00000200: 3d02 99be 285f a43e 5a5f 613d da14 98be
00000210: 5519 b23e 9cb0 583e 692a 203e c786 5d3e
00000220: 071f a9be feba 943e 2049 963e 7c03 9a3e
00000230: e8d8 e13e 42db e9be 1ae6 b83c dbf1 bc3e
00000240: e1e8 963e 89a0 1fbe 40d3 9dbd 5a10 babe
00000250: 98e5 663f a36a 783e 2904 9a3e 47e8 cd3e
00000260: f6d2 1abd fbbc 42be 03b1 b53d 256b 893e
00000270: 4429 d53e a311 0e3d a0bb c2bc af6d 563e
00000280: e1db 053f 3f11 c33e 74f9 6b3e c40f 553d
00000290: 14e0 3abe d178 d33c 5605 a9bd 392c 20bd
000002a0: 3bee 5f3e dea4 0b3e 3e57 b33e a752 47bd
000002b0: d93d ef3e 70c1 293e f561 383f 1c91 733e
000002c0: 6fb7 453e cc2c 3c3e eb1e aabe d380 e03d
000002d0: 2e57 93bd 66e4 5f3e 2571 093f e7c9 fbbd
000002e0: f886 e6bd dd85 053e a6fb 843e 0411 51be
000002f0: 7578 153f 14e7 883d b6a0 103f 83fe f63e
00000300: ddec f73e 6bee ab3e a872 0fbe d7f8 333f
00000310: a168 9ebe 5872 a2be f30b 16be 10e4 a4bd
00000320: e7ea f53d 6905 c0bd 7dcd 843e c7b7 c93e
00000330: 0ca9 0bbe 4402 c23e c249 293f 2203 dcbe
00000340: 367d 383c e3dd a83e 263b a33e b1a0 2c3f
00000350: 9d3a a2be 9452 e03e bd15 2ebe 49d5 2e3e
00000360: ff35 ae3e e7bf bfbe b480 3f3f 1c25 dd3e
00000370: b476 003e 13c4 873e 6542 7d3d cb9f 543e
00000380: e68d f43e d96f 0b3f 2f44 f83d 8f06 de3e
00000390: 432d d63e 541d 2c3c 0797 40ba 4d0a cb3d
000003a0: 2ea9 a1bc ec2d 093f 30ca 51be 5090 913b
000003b0: 4fb7 77be 763f 8f3d 4931 df3e eeed 013e
000003c0: 92b9 273f 802b e03e 56a2 ea3e acce e03e
000003d0: b7f9 bfbd a7f5 09bb fc84 103f 544c bf3c
000003e0: 30f8 8e3e 3028 5d3f db9d d23d 4b79 aa3e
000003f0: 18a5 f03e fdb1 c73e 944b 253f e264 1f3f

lstm.bias_hh_l1 f4 [512]
-0.5606579 -0.73735654 -0.20653927 -0.6637589 -0.66410905 -0.47245765 -0.6984015 -0.30257794
-0.61922735 -0.55331373 -0.768745 -0.46319517 -0.5350535 -0.5530448 -0.68824965 -0.51012677
-0.6205273 -0.29878986 -0.6050924 -0.3110865 -0.508127 -0.67495346 -0.4023517 -0.33313373
-0.71049124 0.025781121 -0.26475963 -0.5245674 -0.67166334 -0.57418686 -0.39166236 -0.48997816
-0.21865104 -0.6559458 -0.1469041 -0.2455839 -0.078589 -0.5881076 -0.41590738 -0.35645947
-0.14728637 -0.49484316 -0.46501273 -0.36715993 -0.6232696 -0.133357 -0.6109996 -0.6327755
-0.33663315 -0.5086514 -0.28594086 -0.6832871 -0.5209131 -0.51609343 -0.55552596 -0.15762457
-0.6928568 -0.5252019 -0.7871044 -0.5838891 -0.65068686 -0.34553126 -0.39026657 -0.49679166
-0.6205171 -0.4267366 -0.41742998 -0.32862654 -0.4232614 -0.5225867 -0.59718615 -0.4295322
-0.691843 -0.29233563 -0.64788413 -0.6404956 -0.25661615 -0.30233815 -0.5492814 -0.30446634
-0.24082136 -0.44499525 -0.62127215 -0.65191567 -0.5512473 -0.5389495 -0.65300435 -0.26348248
-0.68405676 -0.452047 -0.502239 -0.4486249 -0.42626658 -0.42057258 -0.3548787 -0.6826063
-0.31461412 -0.55303234 -0.43600395 -0.561004 -0.4270074 -0.29711285 -0.52570504 -0.48068106
-0.579167 -0.2958407 -0.42414966 -0.5696952 -0.5697056 -0.5371871 -0.6720528 -0.30688086
-0.54918075 -0.732546 -0.6741626 -0.3869499 -0.11752377 -0.45728242 -0.26501548 -0.231996
-0.37302807 -0.5629706 -0.6357943 -0.4368715 -0.5102904 -0.063481234 -0.7570676 -0.5229734
-0.22480145 0.396387 0.21250074 -0.3335721 0.20574637 0.20879039 0.16913761 0.20912188
-0.29271293 0.25676236 0.4322447 0.34591106 0.34199053 -0.4714578 0.01396505 0.29715225
0.34672755 -0.22269462 -0.079417594 -0.38451198 0.9347725 0.2867169 0.30099863 0.38355675
-0.09680092 -0.160688 0.1615455 0.26093465 0.3777547 -0.0060567334 -0.07103129 0.056547265
0.5128515 0.5021397 0.10805979 0.072557345 -0.26100063 0.066065446 0.03385809 -0.017251454
0.10963491 0.1500295 0.29396108 0.071059935 0.5535128 0.061420437 0.6662344 0.23147504
0.02578325 0.23694672 -0.3313949 0.22912769 -0.012252696 0.1606068 0.55225295 -0.09810282
-0.091027856 0.14608496 0.23026362 -0.2614689 0.6310396 0.011587808 0.68269265 0.49112764
0.5085333 0.49175286 -0.0010977762 0.5814929 -0.295559 -0.2981154 -0.18442379 -0.08187018
0.11111157 -0.050182197 0.22522847 0.36139002 -0.042434134 0.50950056 0.74285996 -0.41070038
-0.023097351 0.26956323 0.39179754 0.5924327 -0.2718064 0.39135775 -0.26106963 0.17051043
0.36729428 -0.36846623 0.62722933 0.41589254 0.0049377657 0.3185971 0.019521045 0.0834166
0.3836382 0.4814791 0.21092536 0.38614494 0.29255456 0.0788517 0.038704958 0.22374296
0.07648528 0.53888464 -0.10289162 -0.012602109 -0.23003489 0.026179623 0.2874123 0.16048717
0.6396407 0.48673543 0.4645971 0.48016143 -0.24874318 0.074882016 0.5048731 -0.024411444
0.17835763 0.91850424 0.09462107 0.36117443 0.4385083 0.35266948 0.50734025 0.6890988
00000000: 4787 0fbf 66c3 3cbf 087f 53be 1aec 29bf
00000010: 0d03 2abf f8e5 f1be 71ca 32bf 7feb 9abe
00000020: af85 1ebf f8a5 0dbf 79cc 44bf eb27 edbe
00000030: 44f9 08bf 5894 0dbf 2131 30bf ab97 02bf
00000040: e1da 1ebf fcfa 98be 56e7 1abf bb46 9fbe
00000050: 9c14 02bf c0c9 2cbf 0b01 cebe 8190 aabe
00000060: c1e2 35bf ee32 d33c 938e 87be 0d4a 06bf
00000070: 21f2 2bbf e9fd 12bf f887 c8be 6bde fabe
00000080: 0fe6 5fbe 10ec 27bf 076e 16be 597a 7bbe
00000090: 45f3 a0bd 388e 16bf d0f1 d4be db81 b6be
000000a0: 3dd2 16be 155c fdbe 2616 eebe 63fc bbbe
000000b0: 998e 1fbf bd8e 08be 786a 1cbf 93fd 21bf
000000c0: 2e5b acbe fa36 02bf d766 92be e7eb 2ebf
000000d0: 905a 05bf b31e 04bf f336 0ebf 5668 21be
000000e0: 105f 31bf a273 06bf ad7f 49bf c279 15bf
000000f0: 6a93 26bf 79e9 b0be 05d1 c7be 7a5b febe
00000100: 35da 1ebf 387d dabe 62b9 d5be bd41 a8be
00000110: b8b5 d8be 3ec8 05bf 31e1 18bf a5eb dbbe
00000120: 9f1c 31bf 04ad 95be bcdb 25bf 85f7 23bf
00000130: 3163 83be 11cc 9abe b59d 0cbf 03e3 9bbe
00000140: e099 76be 6bd6 e3be b10b 1fbf f2e3 26bf
00000150: 8b1e 0dbf 98f8 09bf 4b2b 27bf 2de7 86be
00000160: 581e 2fbf b472 e7be bc92 00bf 2ab2 e5be
00000170: 9d3f dabe 4a55 d7be a9b2 b5be 49bf 2ebf
00000180: 1a15 a1be 8793 0dbf e93b dfbe f59d 0fbf
00000190: b7a0 dabe 2d1f 98be 9b94 06bf d41b f6be
000001a0: 4a44 14bf 6f78 97be 252a d9be 8bd7 11bf
000001b0: 3ad8 11bf 1885 09bf a70b 2cbf 7d1f 9dbe
000001c0: 1c97 0cbf 2288 3bbf ec95 2cbf 4c1e c6be
000001d0: 4db0 f0bd ec20 eabe 1cb0 87be 5c90 6dbe
000001e0: 89fd bebe d71e 10bf 6ac3 22bf 9fad dfbe
000001f0: 64a2 02bf 7302 82bd 2fcf 41bf 96e1 05bf
00000200: 5a32 66be 3df3 ca3e cb99 593e f6c9 aabe
00000210: 2daf 523e 26cd 553e 6932 2d3e 0c24 563e
00000220: 78de 95be 5b76 833e 2d4f dd3e 411b b13e
00000230: 6219 af3e eb62 f1be aacd 643c 5724 983e
00000240: 4686 b13e 0f0a 64be b1a5 a2bd c1de c4be
00000250: 404d 6f3f 8fcc 923e 7e1c 9a3e 8d61 c43e
00000260: 903f c6bd 658b 24be 2f6c 253e 3a99 853e
00000270: 1069 c13e 9077 c6bb da78 91bd 1b9e 673d
00000280: 3c4a 033f 3a8c 003f 744e dd3d f298 943d
00000290: e0a1 85be 524d 873d c8ae 0a3d ec52 8dbc
000002a0: 4588 e03d 55a1 193e 1182 963e df87 913d
000002b0: 04b3 0d3f ff93 7b3d 568e 2a3f cb07 6d3e
000002c0: 6537 d33c 29a2 723e 98ac a9be 73a0 6a3e
000002d0: 88bf 48bc 1c76 243e 7360 0d3f 22ea c8bd
000002e0: d06c babd 4c97 153e 3aca 6b3e 40df 85be
000002f0: d08b 213f cada 3d3c f2c4 2e3f 1575 fb3e
00000300: 3d2f 023f 08c7 fb3e 42e3 8fba b8dc 143f
00000310: 8253 97be 95a2 98be 97d9 3cbe 8eab a7bd
00000320: 768e e33d d98b 4dbd 4ba2 663e 1d08 b93e
00000330: 6acf 2dbd a16e 023f 122c 3e3f 5247 d2be
00000340: a836 bdbc 3104 8a3e b099 c83e aba9 173f
00000350: 352a 8bbe 0b60 c83e ebaa 85be 499a 2e3e
00000360: ff0d bc3e 9ba7 bcbe 1a92 203f deef d43e
00000370: fbcc a13b 291f a33e 99ea 9f3c 53d6 aa3d
00000380: 3a6c c43e 6e84 f63e d1fc 573e cab4 c53e
00000390: b6c9 953e 007d a13d 1789 1e3d e01c 653e
000003a0: 51a4 9c3d 58f4 093f d7b8 d2bd 1479 4ebc
000003b0: 448e 6bbe a676 d63c b427 933e c056 243e
000003c0: 7ebf 233f 6335 f93e acdf ed3e b8d7 f53e
000003d0: 88b6 7ebe be5b 993d 5d3f 013f 82fa c7bc
000003e0: 62a3 363e 1823 6b3f b1c8 c13d dbeb b83e
000003f0: 2984 e03e 1891 b43e 0de1 013f c768 303f
